ST Edge AI Core v4.0.0-20500 359356bb0
Created date          : 2026-02-27 15:05:23
Parameters            : validate -m /home/apo/stm32ai-modelzoo/human_activity_recognition/st_gmp/ST_pretrainedmodel_public_dataset/WISDM/st_gmp_wl_24/st_gmp_wl_24.keras --target stm32h7 -n human_activity_recognition -c low -o /home/apo/stm32ai-modelzoo-services/human_activity_recognition/validation/regular/

Exec/report summary (validate)
--------------------------------------------------------------------------------------------------------------------------------------------------------------
model file         :   /home/apo/stm32ai-modelzoo/human_activity_recognition/st_gmp/ST_pretrainedmodel_public_dataset/WISDM/st_gmp_wl_24/st_gmp_wl_24.keras   
type               :   keras                                                                                                                                  
c_name             :   human_activity_recognition                                                                                                             
compression        :   low                                                                                                                                    
options            :   allocate-inputs, allocate-outputs, use-lite-runtime, use-st-ai                                                                         
optimization       :   balanced                                                                                                                               
target/series      :   stm32h7                                                                                                                                
workspace dir      :   /home/apo/stm32ai-modelzoo-services/human_activity_recognition/st_ai_ws                                                                
output dir         :   /home/apo/stm32ai-modelzoo-services/human_activity_recognition/validation/regular                                                      
model_fmt          :   float                                                                                                                                  
model_name         :   st_gmp_wl_24                                                                                                                           
model_hash         :   0x163ac7a03d8d06e171b93797c9992604                                                                                                     
params #           :   1,494 items (5.84 KiB)                                                                                                                 
--------------------------------------------------------------------------------------------------------------------------------------------------------------
input 1/1          :   'input_layer', f32(1x24x3x1), 288 Bytes, activations                                                                                   
output 1/1         :   'activation', f32(1x4), 16 Bytes, activations                                                                                          
macc               :   67,168                                                                                                                                 
weights (ro)       :   5,840 B (5.70 KiB) (1 segment) / -136(-2.3%) vs float model                                                                            
activations (rw)   :   4,352 B (4.25 KiB) (1 segment) *                                                                                                       
ram (total)        :   4,352 B (4.25 KiB) = 4,352 + 0 + 0                                                                                                     
--------------------------------------------------------------------------------------------------------------------------------------------------------------
(*) 'input'/'output' buffers are allocated in the activations buffer

Model name - st_gmp_wl_24
------ ------------------------------------------------------- --------------------- ------------- -------- --------------------------- --- --------------- ----------------- --------------------- 
m_id   layer (type,original)                                   oshape                param/size        macc                connected to   | c_size          c_macc            c_type                
------ ------------------------------------------------------- --------------------- ------------- -------- --------------------------- --- --------------- ----------------- --------------------- 
0      input_layer (Input, InputLayer)                         [b:1,h:24,w:3,c:1]                                                         |                                   
------ ------------------------------------------------------- --------------------- ------------- -------- --------------------------- --- --------------- ----------------- --------------------- 
1      batch_normalization (ScaleBias, BatchNormalization)     [b:1,h:24,w:3,c:1]    2/8                144                 input_layer   | -8(-100.0%)     -144(-100.0%)     
------ ------------------------------------------------------- --------------------- ------------- -------- --------------------------- --- --------------- ----------------- --------------------- 
2      conv2d (Conv2D, Conv2D)                                 [b:1,h:20,w:3,c:16]   96/384           4,816         batch_normalization   | -384(-100.0%)   -4,816(-100.0%)   
------ ------------------------------------------------------- --------------------- ------------- -------- --------------------------- --- --------------- ----------------- --------------------- 
3      batch_normalization_1 (ScaleBias, BatchNormalization)   [b:1,h:20,w:3,c:16]   32/128           1,920                      conv2d   | +256(+200.0%)   +2,896(+150.8%)   Conv2D_[0]            
------ ------------------------------------------------------- --------------------- ------------- -------- --------------------------- --- --------------- ----------------- --------------------- 
4      conv2d_1 (Conv2D, Conv2D)                               [b:1,h:16,w:3,c:16]   1,296/5,184     61,456       batch_normalization_1   |                                   Conv2D_[1]            
------ ------------------------------------------------------- --------------------- ------------- -------- --------------------------- --- --------------- ----------------- --------------------- 
5      global_max_pooling2d_pool (Pool, GlobalMaxPooling2D)    [b:1,h:1,w:1,c:16]                       768                    conv2d_1   |                                   Pool_[2]              
       global_max_pooling2d (Reshape, GlobalMaxPooling2D)      [b:1,c:16]                                     global_max_pooling2d_pool   |                                   
------ ------------------------------------------------------- --------------------- ------------- -------- --------------------------- --- --------------- ----------------- --------------------- 
7      dense (Dense, Dense)                                    [b:1,c:4]             68/272              68        global_max_pooling2d   |                                   Dense_[3]             
------ ------------------------------------------------------- --------------------- ------------- -------- --------------------------- --- --------------- ----------------- --------------------- 
8      activation (Nonlinearity, Activation)                   [b:1,c:4]                                 60                       dense   |                                   Nonlinearity_[o][4]   
------ ------------------------------------------------------- --------------------- ------------- -------- --------------------------- --- --------------- ----------------- --------------------- 
model/c-model: macc=69,232/67,168 -2,064(-3.0%) weights=5,976/5,840 -136(-2.3%) activations=--/4,352 io=--/0



Generated C-graph summary
------------------------------------------------------------------------------------------------------------------------
model name            : st_gmp_wl_24
c-name                : human_activity_recognition
c-node #              : 5
c-array #             : 14
activations size      : 4352 (1 segment)
weights size          : 5840 (1 segment)
macc                  : 67168
inputs                : ['input_layer_output']
outputs               : ['activation_output']

C-Arrays (14)
------ ---------------------------------- ----------- ------------------------- ------------- --------- 
c_id   name (*_array)                     item/size   domain/mem-pool           c-type        comment   
------ ---------------------------------- ----------- ------------------------- ------------- --------- 
0      activation_output                  4/16        activations/**default**   float         /output   
1      conv2d_1_bias                      16/64       weights/weights           const float             
2      conv2d_1_output                    768/3072    activations/**default**   float                   
3      conv2d_1_scratch0                  80/320      activations/**default**   float                   
4      conv2d_1_weights                   1280/5120   weights/weights           const float             
5      conv2d_bias                        16/64       weights/weights           const float             
6      conv2d_output                      960/3840    activations/**default**   float                   
7      conv2d_scratch0                    5/20        activations/**default**   float                   
8      conv2d_weights                     80/320      weights/weights           const float             
9      dense_bias                         4/16        weights/weights           const float             
10     dense_output                       4/16        activations/**default**   float                   
11     dense_weights                      64/256      weights/weights           const float             
12     global_max_pooling2d_pool_output   16/64       activations/**default**   float                   
13     input_layer_output                 72/288      activations/**default**   float         /input    
------ ---------------------------------- ----------- ------------------------- ------------- --------- 

C-Layers (5)
------ --------------------------- ---- --------------- ------- ------ ------------------------------------- -------------------- 
c_id   name (*_layer)              id   layer_type      macc    rom    tensors                               shape (array id)     
------ --------------------------- ---- --------------- ------- ------ ------------------------------------- -------------------- 
0      conv2d                      3    Conv2D          4816    384    I: input_layer_output                 f32(1x24x3x1) (13)   
                                                                       S: conv2d_scratch0                                         
                                                                       W: conv2d_weights                     f32(16x5x1x1) (8)    
                                                                       W: conv2d_bias                        f32(16) (5)          
                                                                       O: conv2d_output                      f32(1x20x3x16) (6)   
------ --------------------------- ---- --------------- ------- ------ ------------------------------------- -------------------- 
1      conv2d_1                    4    Conv2D          61456   5184   I: conv2d_output                      f32(1x20x3x16) (6)   
                                                                       S: conv2d_1_scratch0                                       
                                                                       W: conv2d_1_weights                   f32(16x5x1x16) (4)   
                                                                       W: conv2d_1_bias                      f32(16) (1)          
                                                                       O: conv2d_1_output                    f32(1x16x3x16) (2)   
------ --------------------------- ---- --------------- ------- ------ ------------------------------------- -------------------- 
2      global_max_pooling2d_pool   5    Pool            768     0      I: conv2d_1_output                    f32(1x16x3x16) (2)   
                                                                       O: global_max_pooling2d_pool_output   f32(1x1x1x16) (12)   
------ --------------------------- ---- --------------- ------- ------ ------------------------------------- -------------------- 
3      dense                       7    Dense           68      272    I: global_max_pooling2d_pool_output   f32(1x1x1x16) (12)   
                                                                       W: dense_weights                      f32(4x16) (11)       
                                                                       W: dense_bias                         f32(4) (9)           
                                                                       O: dense_output                       f32(1x4) (10)        
------ --------------------------- ---- --------------- ------- ------ ------------------------------------- -------------------- 
4      activation                  8    Nonlinearity    60      0      I: dense_output                       f32(1x4) (10)        
                                                                       O: activation_output                  f32(1x4) (0)         
------ --------------------------- ---- --------------- ------- ------ ------------------------------------- -------------------- 
 
Setting validation data...
 generating random data, size=10, seed=42, range=(0, 1)
   I[1]: (10, 24, 3, 1)/float32, min/max=[0.005062, 0.999718], mean/std=[0.493493, 0.295012]
 no output/reference samples are provided
 
Running the ST.AI c-model (AI RUNNER)...(name=human_activity_recognition, mode=HOST)

 DLL Driver v2.0 - Direct Python binding (/home/apo/stm32ai-modelzoo-services/human_activity_recognition/st_ai_ws/inspector_human_activity_recognition/workspace/lib/libai_human_activity_recognition.so) ['human_activity_recognition']
  
  Summary 'human_activity_recognition' - ['human_activity_recognition']
  --------------------------------------------------------------------------
  I[1/1] 'input_1'    :   f32[1,24,3,1], 288 Bytes, in activations buffer   
  O[1/1] 'output_1'   :   f32[1,4], 16 Bytes, in activations buffer         
  n_nodes             :   5                                                 
  activations         :   4352                                              
  weights             :   5840                                              
  macc                :   67168                                             
  hash                :   0x163ac7a03d8d06e171b93797c9992604                
  compile_datetime    :   Feb 27 2026 15:05:19                              
  --------------------------------------------------------------------------
  protocol            :   DLL Driver v2.0 - Direct Python binding           
  tools               :   ST.AI (st-ai api) v4.0.0                          
  runtime lib         :   v12.0.0                                           
  capabilities        :   IO_ONLY, PER_LAYER, PER_LAYER_WITH_DATA           
  device.desc         :   x86_64, , Linux                                   
  --------------------------------------------------------------------------
 
 NOTE: The duration and execution time per layer are just indications. They depend on the host machine's workload.

  
  ST.AI Profiling results v2.0 - "human_activity_recognition"
  ------------------------------------------------------------
  nb sample(s)   :   10                                       
  duration       :   0.086 ms by sample (0.077/0.109/0.009)   
  macc           :   67168                                    
  ------------------------------------------------------------
  
  Statistic per tensor
  --------------------------------------------------------------------------------
  tensor   #    type[shape]:size        min     max     mean      std  name       
  --------------------------------------------------------------------------------
  I.0      10   f32[1,24,3,1]:288     0.005   1.000    0.493    0.295  input_1    
  O.0      10   f32[1,4]:16           0.000   0.996    0.250    0.430  output_1   
  --------------------------------------------------------------------------------
 
Saving validation data...
 output directory: /home/apo/stm32ai-modelzoo-services/human_activity_recognition/validation/regular
 creating /home/apo/stm32ai-modelzoo-services/human_activity_recognition/validation/regular/human_activity_recognition_val_io.npz
 m_outputs_1: (10, 4)/float32, min/max=[0.000000, 0.995602], mean/std=[0.250000, 0.429895], activation
 c_outputs_1: (10, 1, 1, 4)/float32, min/max=[0.000000, 0.995602], mean/std=[0.250000, 0.429895], activation

 
Computing the metrics...

 Cross accuracy report #1 (reference vs C-model)
 ----------------------------------------------------------------------------------------------------
 notes: - the output of the reference model is used as ground truth/reference value
        - 10 samples (4 items per sample)

  acc=100.00% rmse=0.000000019 mae=0.000000004 l2r=0.000000038 mean=0.000000 std=0.000000 snr=148.400326 nse=1.000000 cos=1.000000 
 
  Confusion matrix (axis=-1) - 4 classes (10 samples)
  ----------------------------
  C0        0    .    .    .  
  C1        .   10    .    .  
  C2        .    .    0    .  
  C3        .    .    .    0  


Number of operations per c-layer
------- ------ --------------------------------------- -------- -------------- 
c_id    m_id   name (type)                                  #op           type 
------- ------ --------------------------------------- -------- -------------- 
0       3      conv2d (Conv2D)                            4,816   smul_f32_f32 
1       4      conv2d_1 (Conv2D)                         61,456   smul_f32_f32 
2       5      global_max_pooling2d_pool (Pool_Max)         768   smul_f32_f32 
3       7      dense (Dense)                                 68   smul_f32_f32 
4       8      activation (Nonlinearity)                     60     op_f32_f32 
------- ------ --------------------------------------- -------- -------------- 
total                                                    67,168 

Number of operation types
---------------- -------- ----------- 
operation type          #           % 
---------------- -------- ----------- 
smul_f32_f32       67,108       99.9% 
op_f32_f32             60        0.1% 

Complexity report (model)
------ --------------------------- ------------------------- ------------------------- ------ -------- ------------------ 
m_id   name                        c_macc                    c_rom                     c_id   c_dur    l2r (X-CROSS)      
------ --------------------------- ------------------------- ------------------------- ------ -------- ------------------ 
3      batch_normalization_1       ||                 7.2%   ||                 6.6%   [0]     27.6%                      
4      conv2d_1                    ||||||||||||||||  91.5%   ||||||||||||||||  88.8%   [1]     70.5%                      
5      global_max_pooling2d_pool   |                  1.1%   |                  0.0%   [2]      0.9%                      
7      dense                       |                  0.1%   |                  4.7%   [3]      0.3%                      
8      activation                  |                  0.1%   |                  0.0%   [4]      0.7%   3.80175109e-08 *   
------ --------------------------- ------------------------- ------------------------- ------ -------- ------------------ 
macc=67,168 weights=5,840 act=4,352 ram_io=0

Evaluation report (summary)
------------------------------------------------------------------------------------------------------------------------------------------------------------------
Output       acc       rmse          mae           l2r           mean       std        snr          nse        cos        tensor                                  
------------------------------------------------------------------------------------------------------------------------------------------------------------------
X-cross #1   100.00%   0.000000019   0.000000004   0.000000038   0.000000   0.000000   148.400326   1.000000   1.000000   'activation', 10 x f32(1x4), m_id=[8]   
------------------------------------------------------------------------------------------------------------------------------------------------------------------

 acc  : Accuracy (class, axis=-1)
 rmse : Root Mean Squared Error
 mae  : Mean Absolute Error
 l2r  : L2 relative error
 mean : Mean error
 std  : Standard deviation error
 snr  : Signal-to-Noise Ratio (SNR), bigger is better
 nse  : Nash-Sutcliffe efficiency criteria, bigger is better, best=1, range=(-inf, 1]
 cos  : COsine Similarity, bigger is better, best=1, range=(0, 1]
