ST Edge AI Core v1.0.0-19895
Created date          : 2026-04-15 13:39:31
Parameters            : validate --model ../../../base_models/hand_posture/CNN2D_ST_HandPosture_8classes.h5 --target stellar-e -vi ../../../../datasets/handposture/hand_val_images.npy -vo ../../../../datasets/handposture/hand_val_labels.npy

Exec/report summary (validate)
---------------------------------------------------------------------------------------------------------------------------------------------------
model file         :   /home/g.vilarde/stm_edge_ai/stm-edgeai-reliability/sw/hardening/base_models/hand_posture/CNN2D_ST_HandPosture_8classes.h5   
type               :   keras                                                                                                                       
c_name             :   network                                                                                                                     
compression        :   lossless                                                                                                                    
optimization       :   balanced                                                                                                                    
target/series      :   stellar-e                                                                                                                   
workspace dir      :   /home/g.vilarde/stm_edge_ai/stm-edgeai-reliability/sw/hardening/c_code_validete/hand_posture/original/st_ai_ws              
output dir         :   /home/g.vilarde/stm_edge_ai/stm-edgeai-reliability/sw/hardening/c_code_validete/hand_posture/original/st_ai_output          
vinput files       :   /home/g.vilarde/stm_edge_ai/stm-edgeai-reliability/sw/datasets/handposture/hand_val_images.npy                              
vinput files       :   /home/g.vilarde/stm_edge_ai/stm-edgeai-reliability/sw/datasets/handposture/hand_val_labels.npy                              
voutput files      :   /home/g.vilarde/stm_edge_ai/stm-edgeai-reliability/sw/datasets/handposture/hand_val_labels.npy                              
model_fmt          :   float                                                                                                                       
model_name         :   CNN2D_ST_HandPosture_8classes                                                                                               
model_hash         :   0x207d3ca54e61755a72f3aed4ddf9d415                                                                                          
params #           :   2,752 items (10.75 KiB)                                                                                                     
---------------------------------------------------------------------------------------------------------------------------------------------------
input 1/1          :   'input_1', f32(1x8x8x2), 512 Bytes, user                                                                                    
output 1/1         :   'dense_1', f32(1x8), 32 Bytes, user                                                                                         
macc               :   8,520                                                                                                                       
weights (ro)       :   11,008 B (10.75 KiB) (1 segment)                                                                                            
activations (rw)   :   744 B (744 B) (1 segment)                                                                                                   
ram (total)        :   1,288 B (1.26 KiB) = 744 + 512 + 32                                                                                         
---------------------------------------------------------------------------------------------------------------------------------------------------

Model name - CNN2D_ST_HandPosture_8classes
------ --------------------------------------- ------------------- ------------- ------- --------------- --- --------------- ------------------ ------------------------------- 
m_id   layer (type,original)                   oshape              param/size       macc    connected to   | c_size          c_macc             c_type                          
------ --------------------------------------- ------------------- ------------- ------- --------------- --- --------------- ------------------ ------------------------------- 
0      input_1 (Input, InputLayer)             [b:1,h:8,w:8,c:2]                                           |                                    
------ --------------------------------------- ------------------- ------------- ------- --------------- --- --------------- ------------------ ------------------------------- 
1      conv2d (Conv2D, Conv2D)                 [b:1,h:6,w:6,c:8]   152/608         5,192         input_1   | -608(-100.0%)   -5,192(-100.0%)    
------ --------------------------------------- ------------------- ------------- ------- --------------- --- --------------- ------------------ ------------------------------- 
2      activation (Nonlinearity, Activation)   [b:1,h:6,w:6,c:8]                     288          conv2d   |                 -288(-100.0%)      
------ --------------------------------------- ------------------- ------------- ------- --------------- --- --------------- ------------------ ------------------------------- 
3      max_pooling2d (Pool, MaxPooling2D)      [b:1,h:3,w:3,c:8]                     288      activation   | +608(+100.0%)   +5,480(+1902.8%)   Conv2D_[0]                      
------ --------------------------------------- ------------------- ------------- ------- --------------- --- --------------- ------------------ ------------------------------- 
5      flatten (Reshape, Flatten)              [b:1,c:72]                                  max_pooling2d   |                                    
------ --------------------------------------- ------------------- ------------- ------- --------------- --- --------------- ------------------ ------------------------------- 
6      dense_dense (Dense, Dense)              [b:1,c:32]          2,336/9,344     2,336         flatten   |                 +32(+1.4%)         Dense_/Nonlinearity_[1, 2]      
       dense (Nonlinearity, Dense)             [b:1,c:32]                             32     dense_dense   |                 -32(-100.0%)       
------ --------------------------------------- ------------------- ------------- ------- --------------- --- --------------- ------------------ ------------------------------- 
7      dense_1_dense (Dense, Dense)            [b:1,c:8]           264/1,056         264           dense   |                 +120(+45.5%)       Dense_/Nonlinearity_[o][3, 4]   
       dense_1 (Nonlinearity, Dense)           [b:1,c:8]                             120   dense_1_dense   |                 -120(-100.0%)      
------ --------------------------------------- ------------------- ------------- ------- --------------- --- --------------- ------------------ ------------------------------- 
model/c-model: macc=8,520/8,520  weights=11,008/11,008  activations=--/744 io=--/544



Generated C-graph summary
------------------------------------------------------------------------------------------------------------------------
model name            : CNN2D_ST_HandPosture_8classes
c-name                : network
c-node #              : 5
c-array #             : 14
activations size      : 744 (1 segment)
weights size          : 11008 (1 segment)
macc                  : 8520
inputs                : ['input_1_output']
outputs               : ['dense_1_output']

C-Arrays (14)
------ ----------------------- ----------- ------------------------- ------------- --------- 
c_id   name (*_array)          item/size   domain/mem-pool           c-type        comment   
------ ----------------------- ----------- ------------------------- ------------- --------- 
0      conv2d_bias             8/32        weights/weights           const float             
1      conv2d_output           72/288      activations/**default**   float                   
2      conv2d_scratch0         18/72       activations/**default**   float                   
3      conv2d_scratch1         96/384      activations/**default**   float                   
4      conv2d_weights          144/576     weights/weights           const float             
5      dense_1_dense_bias      8/32        weights/weights           const float             
6      dense_1_dense_output    8/32        activations/**default**   float                   
7      dense_1_dense_weights   256/1024    weights/weights           const float             
8      dense_1_output          8/32        user/                     float         /output   
9      dense_dense_bias        32/128      weights/weights           const float             
10     dense_dense_output      32/128      activations/**default**   float                   
11     dense_dense_weights     2304/9216   weights/weights           const float             
12     dense_output            32/128      activations/**default**   float                   
13     input_1_output          128/512     user/                     float         /input    
------ ----------------------- ----------- ------------------------- ------------- --------- 

C-Layers (5)
------ ---------------- ---- --------------- ------ ------ -------------------------- ------------------- 
c_id   name (*_layer)   id   layer_type      macc   rom    tensors                    shape (array id)    
------ ---------------- ---- --------------- ------ ------ -------------------------- ------------------- 
0      conv2d           3    Conv2D          5768   608    I: input_1_output          f32(1x8x8x2) (13)   
                                                           S: conv2d_scratch0                             
                                                           S: conv2d_scratch1                             
                                                           W: conv2d_weights          f32(8x3x3x2) (4)    
                                                           W: conv2d_bias             f32(8) (0)          
                                                           O: conv2d_output           f32(1x3x3x8) (1)    
------ ---------------- ---- --------------- ------ ------ -------------------------- ------------------- 
1      dense_dense      6    Dense           2336   9344   I: conv2d_output           f32(1x3x3x8) (1)    
                                                           W: dense_dense_weights     f32(32x72) (11)     
                                                           W: dense_dense_bias        f32(32) (9)         
                                                           O: dense_dense_output      f32(1x32) (10)      
------ ---------------- ---- --------------- ------ ------ -------------------------- ------------------- 
2      dense            6    Nonlinearity    32     0      I: dense_dense_output      f32(1x32) (10)      
                                                           O: dense_output            f32(1x32) (12)      
------ ---------------- ---- --------------- ------ ------ -------------------------- ------------------- 
3      dense_1_dense    7    Dense           264    1056   I: dense_output            f32(1x32) (12)      
                                                           W: dense_1_dense_weights   f32(8x32) (7)       
                                                           W: dense_1_dense_bias      f32(8) (5)          
                                                           O: dense_1_dense_output    f32(1x8) (6)        
------ ---------------- ---- --------------- ------ ------ -------------------------- ------------------- 
4      dense_1          7    Nonlinearity    120    0      I: dense_1_dense_output    f32(1x8) (6)        
                                                           O: dense_1_output          f32(1x8) (8)        
------ ---------------- ---- --------------- ------ ------ -------------------------- ------------------- 
 
Setting validation data...
 loading file: /home/g.vilarde/stm_edge_ai/stm-edgeai-reliability/sw/datasets/handposture/hand_val_images.npy
 loading file: /home/g.vilarde/stm_edge_ai/stm-edgeai-reliability/sw/datasets/handposture/hand_val_labels.npy
 - samples are reshaped: (2289, 8) -> (2289, 1, 1, 8)
 I[1]: (2289, 8, 8, 2)/float32, min/max=[-0.939, 18.903], mean/std=[5.946, 8.846], input_1
 O[1]: (2289, 1, 1, 8)/float32, min/max=[0.000, 1.000], mean/std=[0.125, 0.331], dense_1
 
Running the STM AI c-model (AI RUNNER)...(name=network, mode=HOST)

 X86 shared lib (/home/g.vilarde/stm_edge_ai/stm-edgeai-reliability/sw/hardening/c_code_validete/hand_posture/original/st_ai_ws/inspector_network/workspace/lib/libai_network.so) ['network']
  
  Summary 'network' - ['network']
  -----------------------------------------------------------------
  inputs/ouputs      :   1/1                                       
  input_1            :   f32[1,8,8,2], 512 Bytes, user             
  output_1           :   f32[1,1,1,8], 32 Bytes, user              
  n_nodes            :   5                                         
  compile_datetime   :   Apr 15 2026 13:39:28                      
  activations        :   744                                       
  weights            :   11008                                     
  macc               :   8520                                      
  -----------------------------------------------------------------
  tools              :   Legacy ST.AI 1.0.0                        
  capabilities       :   IO_ONLY, PER_LAYER, PER_LAYER_WITH_DATA   
  device             :   x86_64, x86_64, Linux                     
  -----------------------------------------------------------------
 
 NOTE: duration and exec time per layer is just an indication. They are dependent of the HOST-machine work-load.

  
  ST.AI Profiling results v1.2 - "network"
  ------------------------------------------------------------
  nb sample(s)   :   2289                                     
  duration       :   0.012 ms by sample (0.008/0.028/0.002)   
  macc           :   8520                                     
  ------------------------------------------------------------
   
   Inference time per node
   -------------------------------------------------------------------------------
   c_id    m_id   type                   dur (ms)       %   cumul     name        
   -------------------------------------------------------------------------------
   0       3      Conv2dPool (0x109)        0.008   70.9%   70.9%     ai_node_0   
   1       6      Dense (0x104)             0.002   16.4%   87.3%     ai_node_1   
   2       6      NL (0x107)                0.000    2.1%   89.4%     ai_node_2   
   3       7      Dense (0x104)             0.000    3.2%   92.6%     ai_node_3   
   4       7      NL (0x107)                0.000    3.9%   96.5%     ai_node_4   
   -------------------------------------------------------------------------------
   total                                    0.011                                 
   -------------------------------------------------------------------------------
   
   Statistic per tensor
   -----------------------------------------------------------------------------------
   tensor   #      type[shape]:size        min      max     mean      std  name       
   -----------------------------------------------------------------------------------
   I.0      2289   f32[1,8,8,2]:512     -0.939   18.903    5.946    8.846  input_1    
   O.0      2289   f32[1,1,1,8]:32       0.000    1.000    0.125    0.323  output_1   
   -----------------------------------------------------------------------------------
 
Saving validation data...
 output directory: /home/g.vilarde/stm_edge_ai/stm-edgeai-reliability/sw/hardening/c_code_validete/hand_posture/original/st_ai_output
 creating /home/g.vilarde/stm_edge_ai/stm-edgeai-reliability/sw/hardening/c_code_validete/hand_posture/original/st_ai_output/network_val_io.npz
 m_outputs_1: (2289, 1, 1, 8)/float32, min/max=[0.000, 1.000], mean/std=[0.125, 0.323], dense_1
 c_outputs_1: (2289, 1, 1, 8)/float32, min/max=[0.000, 1.000], mean/std=[0.125, 0.323], dense_1

 
Computing the metrics...

 Accuracy report #1 for the generated HOST C-model
 ----------------------------------------------------------------------------------------------------
 notes: - computed against the provided ground truth values
        - 2289 samples (8 items per sample)

  acc=99.13%, rmse=0.045249876, mae=0.007199354, l2r=0.130707845, nse=0.981, cos=0.992

  8 classes (2289 samples)
  ------------------------------------------------
  C0       60    1    .    .    .    .    1    .  
  C1        .   352   .    .    .    .    .    .  
  C2        1    2   315   .    2    .    .    4  
  C3        .    .    .   246   .    .    .    .  
  C4        .    .    3    .   311   1    .    2  
  C5        .    .    .    .    .   265   .    .  
  C6        .    .    .    .    .    .   245   .  
  C7        .    1    1    .    1    .    .   475 

 Accuracy report #1 for the reference model
 ----------------------------------------------------------------------------------------------------
 notes: - computed against the provided ground truth values
        - 2289 samples (8 items per sample)

  acc=99.13%, rmse=0.045249876, mae=0.007199354, l2r=0.130707845, nse=0.981, cos=0.992

  8 classes (2289 samples)
  ------------------------------------------------
  C0       60    1    .    .    .    .    1    .  
  C1        .   352   .    .    .    .    .    .  
  C2        1    2   315   .    2    .    .    4  
  C3        .    .    .   246   .    .    .    .  
  C4        .    .    3    .   311   1    .    2  
  C5        .    .    .    .    .   265   .    .  
  C6        .    .    .    .    .    .   245   .  
  C7        .    1    1    .    1    .    .   475 

 Cross accuracy report #1 (reference vs C-model)
 ----------------------------------------------------------------------------------------------------
 notes: - the output of the reference model is used as ground truth/reference value
        - 2289 samples (8 items per sample)

  acc=100.00%, rmse=0.000000029, mae=0.000000006, l2r=0.000000084, nse=1.000, cos=1.000

  8 classes (2289 samples)
  ------------------------------------------------
  C0       61    .    .    .    .    .    .    .  
  C1        .   356   .    .    .    .    .    .  
  C2        .    .   319   .    .    .    .    .  
  C3        .    .    .   246   .    .    .    .  
  C4        .    .    .    .   314   .    .    .  
  C5        .    .    .    .    .   266   .    .  
  C6        .    .    .    .    .    .   246   .  
  C7        .    .    .    .    .    .    .   481 


Number of operations per c-layer
------- ------ ------------------------ ------- -------------- 
c_id    m_id   name (type)                  #op           type 
------- ------ ------------------------ ------- -------------- 
0       3      conv2d (Conv2D)            5,768   smul_f32_f32 
1       6      dense_dense (Dense)        2,336   smul_f32_f32 
2       6      dense (Nonlinearity)          32     op_f32_f32 
3       7      dense_1_dense (Dense)        264   smul_f32_f32 
4       7      dense_1 (Nonlinearity)       120     op_f32_f32 
------- ------ ------------------------ ------- -------------- 
total                                     8,520 

Number of operation types
---------------- ------- ----------- 
operation type         #           % 
---------------- ------- ----------- 
smul_f32_f32       8,368       98.2% 
op_f32_f32           152        1.8% 

Complexity report (model)
------ --------------- ------------------------- ------------------------- -------- -------- ------------------ 
m_id   name            c_macc                    c_rom                     c_id     c_dur    l2r (X-CROSS)      
------ --------------- ------------------------- ------------------------- -------- -------- ------------------ 
3      max_pooling2d   ||||||||||||||||  67.7%   |                  5.5%   [0]       73.6%                      
6      dense_dense     |||||||           27.8%   ||||||||||||||||  84.9%   [1, 2]    19.1%                      
7      dense_1_dense   |                  4.5%   ||                 9.6%   [3, 4]     7.3%   8.42875849e-08 *   
------ --------------- ------------------------- ------------------------- -------- -------- ------------------ 
macc=8,520 weights=11,008 act=744 ram_io=544

Evaluation report (summary)
---------------------------------------------------------------------------------------------------------------------------------------------
Output              acc       rmse        mae         l2r         mean         std         nse         cos         tensor                    
---------------------------------------------------------------------------------------------------------------------------------------------
HOST c-model #1     99.13%    0.0452499   0.0071994   0.1307078   -0.0000000   0.0452511   0.9812806   0.9918571   dense_1, (8,), m_id=[7]   
original model #1   99.13%    0.0452499   0.0071994   0.1307078   -0.0000000   0.0452511   0.9812806   0.9918571   dense_1, (8,), m_id=[7]   
X-cross #1          100.00%   0.0000000   0.0000000   0.0000001   -0.0000000   0.0000000   1.0000000   1.0000000   dense_1, (8,), m_id=[7]   
---------------------------------------------------------------------------------------------------------------------------------------------

 acc  : Classification accuracy (all classes)
 rmse : Root Mean Squared Error
 mae  : Mean Absolute Error
 l2r  : L2 relative error
 nse  : Nash-Sutcliffe efficiency criteria, bigger is better, best=1, range=(-inf, 1]
 cos  : COsine Similarity, bigger is better, best=1, range=(0, 1]
