ST Edge AI Core v4.0.0-20500 359356bb0
Created date          : 2026-03-02 17:13:27
Parameters            : validate -m /home/apo/stm32ai-modelzoo/human_activity_recognition/st_ign/ST_pretrainedmodel_public_dataset/WISDM/st_ign_wl_24/st_ign_wl_24.keras --target stm32h7 -n human_activity_recognition -c low -o /home/apo/stm32ai-modelzoo-services/human_activity_recognition/validation/ign_regular/

Exec/report summary (validate)
--------------------------------------------------------------------------------------------------------------------------------------------------------------
model file         :   /home/apo/stm32ai-modelzoo/human_activity_recognition/st_ign/ST_pretrainedmodel_public_dataset/WISDM/st_ign_wl_24/st_ign_wl_24.keras   
type               :   keras                                                                                                                                  
c_name             :   human_activity_recognition                                                                                                             
compression        :   low                                                                                                                                    
options            :   allocate-inputs, allocate-outputs, use-lite-runtime, use-st-ai                                                                         
optimization       :   balanced                                                                                                                               
target/series      :   stm32h7                                                                                                                                
workspace dir      :   /home/apo/st_ai_ws                                                                                                                     
output dir         :   /home/apo/stm32ai-modelzoo-services/human_activity_recognition/validation/ign_regular                                                  
model_fmt          :   float                                                                                                                                  
model_name         :   st_ign_wl_24                                                                                                                           
model_hash         :   0x182538bb72eca0452f4050f5d48254f9                                                                                                     
params #           :   3,064 items (11.97 KiB)                                                                                                                
--------------------------------------------------------------------------------------------------------------------------------------------------------------
input 1/1          :   'input_layer', f32(1x24x3x1), 288 Bytes, activations                                                                                   
output 1/1         :   'dense_1', f32(1x4), 16 Bytes, activations                                                                                             
macc               :   14,404                                                                                                                                 
weights (ro)       :   5,504 B (5.38 KiB) (1 segment) / -6,752(-55.1%) vs float model                                                                         
activations (rw)   :   2,944 B (2.88 KiB) (1 segment) *                                                                                                       
ram (total)        :   2,944 B (2.88 KiB) = 2,944 + 0 + 0                                                                                                     
--------------------------------------------------------------------------------------------------------------------------------------------------------------
(*) 'input'/'output' buffers are allocated in the activations buffer

Model name - st_ign_wl_24
------ --------------------------------------- -------------------- -------------- -------- --------------- --- ---------------- -------------- ------------------------------- 
m_id   layer (type,original)                   oshape               param/size         macc    connected to   | c_size           c_macc         c_type                          
------ --------------------------------------- -------------------- -------------- -------- --------------- --- ---------------- -------------- ------------------------------- 
0      input_layer (Input, InputLayer)         [b:1,h:24,w:3,c:1]                                             |                                 
------ --------------------------------------- -------------------- -------------- -------- --------------- --- ---------------- -------------- ------------------------------- 
1      conv2d (Conv2D, Conv2D)                 [b:1,h:9,w:3,c:24]   408/1,632        10,392     input_layer   |                                 Conv2D_[0]                      
------ --------------------------------------- -------------------- -------------- -------- --------------- --- ---------------- -------------- ------------------------------- 
2      activation (Nonlinearity, Activation)   [b:1,h:9,w:3,c:24]                       648          conv2d   |                                 Nonlinearity_[1]                
------ --------------------------------------- -------------------- -------------- -------- --------------- --- ---------------- -------------- ------------------------------- 
3      max_pooling2d (Pool, MaxPooling2D)      [b:1,h:3,w:3,c:24]                       648      activation   |                                 Pool_[2]                        
------ --------------------------------------- -------------------- -------------- -------- --------------- --- ---------------- -------------- ------------------------------- 
4      flatten (Reshape, Flatten)              [b:1,c:216]                                    max_pooling2d   |                                 
------ --------------------------------------- -------------------- -------------- -------- --------------- --- ---------------- -------------- ------------------------------- 
5      dense (Dense, Dense)                    [b:1,c:12]           2,604/10,416      2,604         flatten   | -6,752(-64.8%)                  Dense_[3]                       
------ --------------------------------------- -------------------- -------------- -------- --------------- --- ---------------- -------------- ------------------------------- 
7      dense_1_dense (Dense, Dense)            [b:1,c:4]            52/208               52           dense   |                  +60(+115.4%)   Dense_/Nonlinearity_[o][4, 5]   
       dense_1 (Nonlinearity, Dense)           [b:1,c:4]                                 60   dense_1_dense   |                  -60(-100.0%)   
------ --------------------------------------- -------------------- -------------- -------- --------------- --- ---------------- -------------- ------------------------------- 
model/c-model: macc=14,404/14,404  weights=12,256/5,504 -6,752(-55.1%) activations=--/2,944 io=--/0



Generated C-graph summary
------------------------------------------------------------------------------------------------------------------------
model name            : st_ign_wl_24
c-name                : human_activity_recognition
c-node #              : 6
c-array #             : 14
activations size      : 2944 (1 segment)
weights size          : 5504 (1 segment)
macc                  : 14404
inputs                : ['input_layer_output']
outputs               : ['dense_1_output']

C-Arrays (14)
------ ----------------------- ----------- ------------------------- ------------------ --------- 
c_id   name (*_array)          item/size   domain/mem-pool           c-type             comment   
------ ----------------------- ----------- ------------------------- ------------------ --------- 
0      activation_output       648/2592    activations/**default**   float                        
1      conv2d_bias             24/96       weights/weights           const float                  
2      conv2d_output           648/2592    activations/**default**   float                        
3      conv2d_scratch0         16/64       activations/**default**   float                        
4      conv2d_weights          384/1536    weights/weights           const float                  
5      dense_1_dense_bias      4/16        weights/weights           const float                  
6      dense_1_dense_output    4/16        activations/**default**   float                        
7      dense_1_dense_weights   48/192      weights/weights           const float                  
8      dense_1_output          4/16        activations/**default**   float              /output   
9      dense_bias              12/48       weights/weights           const float                  
10     dense_output            12/48       activations/**default**   float                        
11     dense_weights           2592/3616   weights/weights           const lut8_float             
12     input_layer_output      72/288      activations/**default**   float              /input    
13     max_pooling2d_output    216/864     activations/**default**   float                        
------ ----------------------- ----------- ------------------------- ------------------ --------- 

C-Layers (6)
------ ---------------- ---- --------------- ------- ------ -------------------------- -------------------- 
c_id   name (*_layer)   id   layer_type      macc    rom    tensors                    shape (array id)     
------ ---------------- ---- --------------- ------- ------ -------------------------- -------------------- 
0      conv2d           1    Conv2D          10392   1632   I: input_layer_output      f32(1x24x3x1) (12)   
                                                            S: conv2d_scratch0                              
                                                            W: conv2d_weights          f32(24x16x1x1) (4)   
                                                            W: conv2d_bias             f32(24) (1)          
                                                            O: conv2d_output           f32(1x9x3x24) (2)    
------ ---------------- ---- --------------- ------- ------ -------------------------- -------------------- 
1      activation       2    Nonlinearity    648     0      I: conv2d_output           f32(1x9x3x24) (2)    
                                                            O: activation_output       f32(1x9x3x24) (0)    
------ ---------------- ---- --------------- ------- ------ -------------------------- -------------------- 
2      max_pooling2d    3    Pool            648     0      I: activation_output       f32(1x9x3x24) (0)    
                                                            O: max_pooling2d_output    f32(1x3x3x24) (13)   
------ ---------------- ---- --------------- ------- ------ -------------------------- -------------------- 
3      dense            5    Dense           2604    3664   I: max_pooling2d_output    f32(1x3x3x24) (13)   
                                                            W: dense_weights           c8(12x216) (11)      
                                                            W: dense_bias              f32(12) (9)          
                                                            O: dense_output            f32(1x12) (10)       
------ ---------------- ---- --------------- ------- ------ -------------------------- -------------------- 
4      dense_1_dense    7    Dense           52      208    I: dense_output            f32(1x12) (10)       
                                                            W: dense_1_dense_weights   f32(4x12) (7)        
                                                            W: dense_1_dense_bias      f32(4) (5)           
                                                            O: dense_1_dense_output    f32(1x4) (6)         
------ ---------------- ---- --------------- ------- ------ -------------------------- -------------------- 
5      dense_1          7    Nonlinearity    60      0      I: dense_1_dense_output    f32(1x4) (6)         
                                                            O: dense_1_output          f32(1x4) (8)         
------ ---------------- ---- --------------- ------- ------ -------------------------- -------------------- 
 
Setting validation data...
 generating random data, size=10, seed=42, range=(0, 1)
   I[1]: (10, 24, 3, 1)/float32, min/max=[0.005062, 0.999718], mean/std=[0.493493, 0.295012]
 no output/reference samples are provided
 
Running the ST.AI c-model (AI RUNNER)...(name=human_activity_recognition, mode=HOST)

 DLL Driver v2.0 - Direct Python binding (/home/apo/st_ai_ws/inspector_human_activity_recognition/workspace/lib/libai_human_activity_recognition.so) ['human_activity_recognition']
  
  Summary 'human_activity_recognition' - ['human_activity_recognition']
  --------------------------------------------------------------------------
  I[1/1] 'input_1'    :   f32[1,24,3,1], 288 Bytes, in activations buffer   
  O[1/1] 'output_1'   :   f32[1,4], 16 Bytes, in activations buffer         
  n_nodes             :   6                                                 
  activations         :   2944                                              
  weights             :   5504                                              
  macc                :   14404                                             
  hash                :   0x182538bb72eca0452f4050f5d48254f9                
  compile_datetime    :   Mar  2 2026 17:13:21                              
  --------------------------------------------------------------------------
  protocol            :   DLL Driver v2.0 - Direct Python binding           
  tools               :   ST.AI (st-ai api) v4.0.0                          
  runtime lib         :   v12.0.0                                           
  capabilities        :   IO_ONLY, PER_LAYER, PER_LAYER_WITH_DATA           
  device.desc         :   x86_64, , Linux                                   
  --------------------------------------------------------------------------
 
 NOTE: The duration and execution time per layer are just indications. They depend on the host machine's workload.

  
  ST.AI Profiling results v2.0 - "human_activity_recognition"
  ------------------------------------------------------------
  nb sample(s)   :   10                                       
  duration       :   0.108 ms by sample (0.048/0.483/0.126)   
  macc           :   14404                                    
  ------------------------------------------------------------
  
  Statistic per tensor
  --------------------------------------------------------------------------------
  tensor   #    type[shape]:size        min     max     mean      std  name       
  --------------------------------------------------------------------------------
  I.0      10   f32[1,24,3,1]:288     0.005   1.000    0.493    0.295  input_1    
  O.0      10   f32[1,4]:16           0.000   0.999    0.250    0.430  output_1   
  --------------------------------------------------------------------------------
 
Saving validation data...
 output directory: /home/apo/stm32ai-modelzoo-services/human_activity_recognition/validation/ign_regular
 creating /home/apo/stm32ai-modelzoo-services/human_activity_recognition/validation/ign_regular/human_activity_recognition_val_io.npz
 m_outputs_1: (10, 4)/float32, min/max=[0.000001, 0.999065], mean/std=[0.250000, 0.429845], dense_1
 c_outputs_1: (10, 1, 1, 4)/float32, min/max=[0.000001, 0.999045], mean/std=[0.250000, 0.429775], dense_1

 
Computing the metrics...

 Cross accuracy report #1 (reference vs C-model)
 ----------------------------------------------------------------------------------------------------
 notes: - the output of the reference model is used as ground truth/reference value
        - 10 samples (4 items per sample)

  acc=100.00% rmse=0.000103846 mae=0.000061159 l2r=0.000208862 mean=-0.000000 std=0.000105 snr=73.603883 nse=1.000000 cos=1.000000 
 
  Confusion matrix (axis=-1) - 4 classes (10 samples)
  ----------------------------
  C0        0    .    .    .  
  C1        .   10    .    .  
  C2        .    .    0    .  
  C3        .    .    .    0  


Number of operations per c-layer
------- ------ ---------------------------- -------- -------------- 
c_id    m_id   name (type)                       #op           type 
------- ------ ---------------------------- -------- -------------- 
0       1      conv2d (Conv2D)                10,392   smul_f32_f32 
1       2      activation (Nonlinearity)         648     op_f32_f32 
2       3      max_pooling2d (Pool_Max)          648   smul_f32_f32 
3       5      dense (Dense)                   2,604    smul_f32_f8 
4       7      dense_1_dense (Dense)              52   smul_f32_f32 
5       7      dense_1 (Nonlinearity)             60     op_f32_f32 
------- ------ ---------------------------- -------- -------------- 
total                                         14,404 

Number of operation types
---------------- -------- ----------- 
operation type          #           % 
---------------- -------- ----------- 
smul_f32_f32       11,092       77.0% 
op_f32_f32            708        4.9% 
smul_f32_f8         2,604       18.1% 

Complexity report (model)
------ --------------- ------------------------- ------------------------- -------- -------- ------------------ 
m_id   name            c_macc                    c_rom                     c_id     c_dur    l2r (X-CROSS)      
------ --------------- ------------------------- ------------------------- -------- -------- ------------------ 
1      conv2d          ||||||||||||||||  72.1%   |||||||           29.7%   [0]       83.7%                      
2      activation      |                  4.5%   |                  0.0%   [1]        4.0%                      
3      max_pooling2d   |                  4.5%   |                  0.0%   [2]        3.1%                      
5      dense           ||||              18.1%   ||||||||||||||||  66.6%   [3]        6.0%                      
7      dense_1_dense   |                  0.8%   |                  3.8%   [4, 5]     3.1%   2.08861646e-04 *   
------ --------------- ------------------------- ------------------------- -------- -------- ------------------ 
macc=14,404 weights=5,504 act=2,944 ram_io=0

Evaluation report (summary)
---------------------------------------------------------------------------------------------------------------------------------------------------------------
Output       acc       rmse          mae           l2r           mean        std        snr         nse        cos        tensor                               
---------------------------------------------------------------------------------------------------------------------------------------------------------------
X-cross #1   100.00%   0.000103846   0.000061159   0.000208862   -0.000000   0.000105   73.603883   1.000000   1.000000   'dense_1', 10 x f32(1x4), m_id=[7]   
---------------------------------------------------------------------------------------------------------------------------------------------------------------

 acc  : Accuracy (class, axis=-1)
 rmse : Root Mean Squared Error
 mae  : Mean Absolute Error
 l2r  : L2 relative error
 mean : Mean error
 std  : Standard deviation error
 snr  : Signal-to-Noise Ratio (SNR), bigger is better
 nse  : Nash-Sutcliffe efficiency criteria, bigger is better, best=1, range=(-inf, 1]
 cos  : COsine Similarity, bigger is better, best=1, range=(0, 1]
