ST Edge AI Core v1.0.0-19895
Created date          : 2026-03-31 11:05:24
Parameters            : validate --model sw/hardening/hardened_models/hand_posture/adaptive_clipper.h5 --target stellar-e --custom sw/hardening/config/adaptive_clipper_config.json -vi sw/datasets/handposture/hand_val_images.npy -vo sw/datasets/handposture/hand_val_labels.npy --mode host

Exec/report summary (validate)
------------------------------------------------------------------------------------------------------------------------
model file         :   /home/apo/stm-edgeai-reliability/sw/hardening/hardened_models/hand_posture/adaptive_clipper.h5   
type               :   keras                                                                                            
c_name             :   network                                                                                          
compression        :   lossless                                                                                         
optimization       :   balanced                                                                                         
target/series      :   stellar-e                                                                                        
workspace dir      :   /home/apo/stm-edgeai-reliability/st_ai_ws                                                        
output dir         :   /home/apo/stm-edgeai-reliability/st_ai_output                                                    
vinput files       :   /home/apo/stm-edgeai-reliability/sw/datasets/handposture/hand_val_images.npy                     
vinput files       :   /home/apo/stm-edgeai-reliability/sw/datasets/handposture/hand_val_labels.npy                     
voutput files      :   /home/apo/stm-edgeai-reliability/sw/datasets/handposture/hand_val_labels.npy                     
model_fmt          :   float                                                                                            
model_name         :   adaptive_clipper                                                                                 
model_hash         :   0xfaebef74bcbefab8d55a04026abcbcd2                                                               
params #           :   2,752 items (10.75 KiB)                                                                          
------------------------------------------------------------------------------------------------------------------------
input 1/1          :   'input_1', f32(1x8x8x2), 512 Bytes, user                                                         
output 1/1         :   'dense_1', f32(1x8), 32 Bytes, user                                                              
macc               :   8,840                                                                                            
weights (ro)       :   11,008 B (10.75 KiB) (1 segment)                                                                 
activations (rw)   :   744 B (744 B) (1 segment)                                                                        
ram (total)        :   1,288 B (1.26 KiB) = 744 + 512 + 32                                                              
------------------------------------------------------------------------------------------------------------------------

Model name - adaptive_clipper
------ ----------------------------------------- ------------------- ------------- ------- -------------------- --- --------------- ------------------ ------------------------------- 
m_id   layer (type,original)                     oshape              param/size       macc         connected to   | c_size          c_macc             c_type                          
------ ----------------------------------------- ------------------- ------------- ------- -------------------- --- --------------- ------------------ ------------------------------- 
0      input_1 (Input, InputLayer)               [b:1,h:8,w:8,c:2]                                                |                                    
------ ----------------------------------------- ------------------- ------------- ------- -------------------- --- --------------- ------------------ ------------------------------- 
1      conv2d (Conv2D, Conv2D)                   [b:1,h:6,w:6,c:8]   152/608         5,192              input_1   | -608(-100.0%)   -5,192(-100.0%)    
------ ----------------------------------------- ------------------- ------------- ------- -------------------- --- --------------- ------------------ ------------------------------- 
2      activation_clipper (Nonlinearity, ReLU)   [b:1,h:6,w:6,c:8]                     288               conv2d   |                 -288(-100.0%)      
------ ----------------------------------------- ------------------- ------------- ------- -------------------- --- --------------- ------------------ ------------------------------- 
3      max_pooling2d (Pool, MaxPooling2D)        [b:1,h:3,w:3,c:8]                     288   activation_clipper   | +608(+100.0%)   +5,768(+2002.8%)   Conv2D_[0]                      
------ ----------------------------------------- ------------------- ------------- ------- -------------------- --- --------------- ------------------ ------------------------------- 
5      flatten (Reshape, Flatten)                [b:1,c:72]                                       max_pooling2d   |                                    
------ ----------------------------------------- ------------------- ------------- ------- -------------------- --- --------------- ------------------ ------------------------------- 
6      dense (Dense, Dense)                      [b:1,c:32]          2,336/9,344     2,336              flatten   |                                    Dense_[1]                       
------ ----------------------------------------- ------------------- ------------- ------- -------------------- --- --------------- ------------------ ------------------------------- 
7      dense_clipper (Nonlinearity, ReLU)        [b:1,c:32]                             32                dense   |                 +32(+100.0%)       Nonlinearity_[2]                
------ ----------------------------------------- ------------------- ------------- ------- -------------------- --- --------------- ------------------ ------------------------------- 
8      dense_1_dense (Dense, Dense)              [b:1,c:8]           264/1,056         264        dense_clipper   |                 +120(+45.5%)       Dense_/Nonlinearity_[o][3, 4]   
       dense_1 (Nonlinearity, Dense)             [b:1,c:8]                             120        dense_1_dense   |                 -120(-100.0%)      
------ ----------------------------------------- ------------------- ------------- ------- -------------------- --- --------------- ------------------ ------------------------------- 
model/c-model: macc=8,520/8,840 +320(+3.8%) weights=11,008/11,008  activations=--/744 io=--/544



Generated C-graph summary
------------------------------------------------------------------------------------------------------------------------
model name            : adaptive_clipper
c-name                : network
c-node #              : 5
c-array #             : 14
activations size      : 744 (1 segment)
weights size          : 11008 (1 segment)
macc                  : 8840
inputs                : ['input_1_output']
outputs               : ['dense_1_output']

C-Arrays (14)
------ ----------------------- ----------- ------------------------- ------------- --------- 
c_id   name (*_array)          item/size   domain/mem-pool           c-type        comment   
------ ----------------------- ----------- ------------------------- ------------- --------- 
0      conv2d_bias             8/32        weights/weights           const float             
1      conv2d_output           72/288      activations/**default**   float                   
2      conv2d_scratch0         18/72       activations/**default**   float                   
3      conv2d_scratch1         96/384      activations/**default**   float                   
4      conv2d_weights          144/576     weights/weights           const float             
5      dense_1_dense_bias      8/32        weights/weights           const float             
6      dense_1_dense_output    8/32        activations/**default**   float                   
7      dense_1_dense_weights   256/1024    weights/weights           const float             
8      dense_1_output          8/32        user/                     float         /output   
9      dense_bias              32/128      weights/weights           const float             
10     dense_clipper_output    32/128      activations/**default**   float                   
11     dense_output            32/128      activations/**default**   float                   
12     dense_weights           2304/9216   weights/weights           const float             
13     input_1_output          128/512     user/                     float         /input    
------ ----------------------- ----------- ------------------------- ------------- --------- 

C-Layers (5)
------ ---------------- ---- --------------- ------ ------ -------------------------- ------------------- 
c_id   name (*_layer)   id   layer_type      macc   rom    tensors                    shape (array id)    
------ ---------------- ---- --------------- ------ ------ -------------------------- ------------------- 
0      conv2d           3    Conv2D          6056   608    I: input_1_output          f32(1x8x8x2) (13)   
                                                           S: conv2d_scratch0                             
                                                           S: conv2d_scratch1                             
                                                           W: conv2d_weights          f32(8x3x3x2) (4)    
                                                           W: conv2d_bias             f32(8) (0)          
                                                           O: conv2d_output           f32(1x3x3x8) (1)    
------ ---------------- ---- --------------- ------ ------ -------------------------- ------------------- 
1      dense            6    Dense           2336   9344   I: conv2d_output           f32(1x3x3x8) (1)    
                                                           W: dense_weights           f32(32x72) (12)     
                                                           W: dense_bias              f32(32) (9)         
                                                           O: dense_output            f32(1x32) (11)      
------ ---------------- ---- --------------- ------ ------ -------------------------- ------------------- 
2      dense_clipper    7    Nonlinearity    64     0      I: dense_output            f32(1x32) (11)      
                                                           O: dense_clipper_output    f32(1x32) (10)      
------ ---------------- ---- --------------- ------ ------ -------------------------- ------------------- 
3      dense_1_dense    8    Dense           264    1056   I: dense_clipper_output    f32(1x32) (10)      
                                                           W: dense_1_dense_weights   f32(8x32) (7)       
                                                           W: dense_1_dense_bias      f32(8) (5)          
                                                           O: dense_1_dense_output    f32(1x8) (6)        
------ ---------------- ---- --------------- ------ ------ -------------------------- ------------------- 
4      dense_1          8    Nonlinearity    120    0      I: dense_1_dense_output    f32(1x8) (6)        
                                                           O: dense_1_output          f32(1x8) (8)        
------ ---------------- ---- --------------- ------ ------ -------------------------- ------------------- 
 
Setting validation data...
 loading file: /home/apo/stm-edgeai-reliability/sw/datasets/handposture/hand_val_images.npy
 loading file: /home/apo/stm-edgeai-reliability/sw/datasets/handposture/hand_val_labels.npy
 - samples are reshaped: (2289, 8) -> (2289, 1, 1, 8)
 I[1]: (2289, 8, 8, 2)/float32, min/max=[-0.939, 18.903], mean/std=[5.946, 8.846], input_1
 O[1]: (2289, 1, 1, 8)/float32, min/max=[0.000, 1.000], mean/std=[0.125, 0.331], dense_1
 
Running the STM AI c-model (AI RUNNER)...(name=network, mode=HOST)

 X86 shared lib (/home/apo/stm-edgeai-reliability/st_ai_ws/inspector_network/workspace/lib/libai_network.so) ['network']
  
  Summary 'network' - ['network']
  -----------------------------------------------------------------
  inputs/ouputs      :   1/1                                       
  input_1            :   f32[1,8,8,2], 512 Bytes, user             
  output_1           :   f32[1,1,1,8], 32 Bytes, user              
  n_nodes            :   5                                         
  compile_datetime   :   Mar 31 2026 11:05:19                      
  activations        :   744                                       
  weights            :   11008                                     
  macc               :   8840                                      
  -----------------------------------------------------------------
  tools              :   Legacy ST.AI 1.0.0                        
  capabilities       :   IO_ONLY, PER_LAYER, PER_LAYER_WITH_DATA   
  device             :   x86_64, , Linux                           
  -----------------------------------------------------------------
 
 NOTE: duration and exec time per layer is just an indication. They are dependent of the HOST-machine work-load.

  
  ST.AI Profiling results v1.2 - "network"
  ------------------------------------------------------------
  nb sample(s)   :   2289                                     
  duration       :   0.020 ms by sample (0.013/0.130/0.007)   
  macc           :   8840                                     
  ------------------------------------------------------------
   
   Inference time per node
   -------------------------------------------------------------------------------
   c_id    m_id   type                   dur (ms)       %   cumul     name        
   -------------------------------------------------------------------------------
   0       3      Conv2dPool (0x109)        0.013   62.2%   62.2%     ai_node_0   
   1       6      Dense (0x104)             0.004   19.8%   81.9%     ai_node_1   
   2       7      NL (0x107)                0.001    2.7%   84.6%     ai_node_2   
   3       8      Dense (0x104)             0.001    4.4%   89.0%     ai_node_3   
   4       8      NL (0x107)                0.001    6.4%   95.4%     ai_node_4   
   -------------------------------------------------------------------------------
   total                                    0.020                                 
   -------------------------------------------------------------------------------
   
   Statistic per tensor
   -----------------------------------------------------------------------------------
   tensor   #      type[shape]:size        min      max     mean      std  name       
   -----------------------------------------------------------------------------------
   I.0      2289   f32[1,8,8,2]:512     -0.939   18.903    5.946    8.846  input_1    
   O.0      2289   f32[1,1,1,8]:32       0.000    1.000    0.125    0.310  output_1   
   -----------------------------------------------------------------------------------
 
Saving validation data...
 output directory: /home/apo/stm-edgeai-reliability/st_ai_output
 creating /home/apo/stm-edgeai-reliability/st_ai_output/network_val_io.npz
 m_outputs_1: (2289, 1, 1, 8)/float32, min/max=[0.000, 1.000], mean/std=[0.125, 0.310], dense_1
 c_outputs_1: (2289, 1, 1, 8)/float32, min/max=[0.000, 1.000], mean/std=[0.125, 0.310], dense_1

 
Computing the metrics...

 Accuracy report #1 for the generated HOST C-model
 ----------------------------------------------------------------------------------------------------
 notes: - computed against the provided ground truth values
        - 2289 samples (8 items per sample)

  acc=70.47%, rmse=0.251776457, mae=0.076366037, l2r=0.752240956, nse=0.420, cos=0.734

  8 classes (2289 samples)
  ------------------------------------------------
  C0       46    9    1    .    1    .    5    .  
  C1       17   211  13   10    .    .   53   48  
  C2        2   15   187   .    8    .   99   13  
  C3        .    .    .   225   .    7   14    .  
  C4        .    3    5   27   159   9   24   90  
  C5        .    .    .   12   14   239   .    .  
  C6        2    .    .   16    .    6   221   .  
  C7        3    4   23    9   44   17   53   325 

 Accuracy report #1 for the reference model
 ----------------------------------------------------------------------------------------------------
 notes: - computed against the provided ground truth values
        - 2289 samples (8 items per sample)

  acc=70.47%, rmse=0.251776427, mae=0.076366037, l2r=0.752240956, nse=0.420, cos=0.734

  8 classes (2289 samples)
  ------------------------------------------------
  C0       46    9    1    .    1    .    5    .  
  C1       17   211  13   10    .    .   53   48  
  C2        2   15   187   .    8    .   99   13  
  C3        .    .    .   225   .    7   14    .  
  C4        .    3    5   27   159   9   24   90  
  C5        .    .    .   12   14   239   .    .  
  C6        2    .    .   16    .    6   221   .  
  C7        3    4   23    9   44   17   53   325 

 Cross accuracy report #1 (reference vs C-model)
 ----------------------------------------------------------------------------------------------------
 notes: - the output of the reference model is used as ground truth/reference value
        - 2289 samples (8 items per sample)

  acc=100.00%, rmse=0.000000147, mae=0.000000030, l2r=0.000000441, nse=1.000, cos=1.000

  8 classes (2289 samples)
  ------------------------------------------------
  C0       70    .    .    .    .    .    .    .  
  C1        .   242   .    .    .    .    .    .  
  C2        .    .   229   .    .    .    .    .  
  C3        .    .    .   299   .    .    .    .  
  C4        .    .    .    .   226   .    .    .  
  C5        .    .    .    .    .   278   .    .  
  C6        .    .    .    .    .    .   469   .  
  C7        .    .    .    .    .    .    .   476 


Number of operations per c-layer
------- ------ ------------------------------ ------- -------------- 
c_id    m_id   name (type)                        #op           type 
------- ------ ------------------------------ ------- -------------- 
0       3      conv2d (Conv2D)                  6,056   smul_f32_f32 
1       6      dense (Dense)                    2,336   smul_f32_f32 
2       7      dense_clipper (Nonlinearity)        64     op_f32_f32 
3       8      dense_1_dense (Dense)              264   smul_f32_f32 
4       8      dense_1 (Nonlinearity)             120     op_f32_f32 
------- ------ ------------------------------ ------- -------------- 
total                                           8,840 

Number of operation types
---------------- ------- ----------- 
operation type         #           % 
---------------- ------- ----------- 
smul_f32_f32       8,656       97.9% 
op_f32_f32           184        2.1% 

Complexity report (model)
------ --------------- ------------------------- ------------------------- -------- -------- ------------------ 
m_id   name            c_macc                    c_rom                     c_id     c_dur    l2r (X-CROSS)      
------ --------------- ------------------------- ------------------------- -------- -------- ------------------ 
3      max_pooling2d   ||||||||||||||||  68.5%   |                  5.5%   [0]       65.1%                      
6      dense           ||||||            26.4%   ||||||||||||||||  84.9%   [1]       20.8%                      
7      dense_clipper   |                  0.7%   |                  0.0%   [2]        2.8%                      
8      dense_1_dense   |                  4.3%   ||                 9.6%   [3, 4]    11.3%   4.40533256e-07 *   
------ --------------- ------------------------- ------------------------- -------- -------- ------------------ 
macc=8,840 weights=11,008 act=744 ram_io=544

Evaluation report (summary)
---------------------------------------------------------------------------------------------------------------------------------------------
Output              acc       rmse        mae         l2r         mean         std         nse         cos         tensor                    
---------------------------------------------------------------------------------------------------------------------------------------------
HOST c-model #1     70.47%    0.2517765   0.0763660   0.7522410   -0.0000000   0.2517833   0.4204539   0.7336544   dense_1, (8,), m_id=[8]   
original model #1   70.47%    0.2517764   0.0763660   0.7522410   0.0000000    0.2517833   0.4204540   0.7336545   dense_1, (8,), m_id=[8]   
X-cross #1          100.00%   0.0000001   0.0000000   0.0000004   -0.0000000   0.0000001   1.0000000   1.0000000   dense_1, (8,), m_id=[8]   
---------------------------------------------------------------------------------------------------------------------------------------------

 acc  : Classification accuracy (all classes)
 rmse : Root Mean Squared Error
 mae  : Mean Absolute Error
 l2r  : L2 relative error
 nse  : Nash-Sutcliffe efficiency criteria, bigger is better, best=1, range=(-inf, 1]
 cos  : COsine Similarity, bigger is better, best=1, range=(0, 1]
