ST Edge AI Core v1.0.0-19895
Created date          : 2026-04-02 17:09:59
Parameters            : validate --model ../../../hardened_models/hand_posture/voter_tmr.h5 --target stellar-e --custom ../../../config/voter_tmr.json -vi ../../../../datasets/handposture/hand_val_images.npy --no-check --mode target -d lib:st_ai_ws/inspector_network/workspace/

Exec/report summary (validate)
---------------------------------------------------------------------------------------------------------------------------------------------
model file         :   /home/g.vilarde/stm_edge_ai/stm-edgeai-reliability/sw/hardening/hardened_models/hand_posture/voter_tmr.h5             
type               :   keras                                                                                                                 
c_name             :   network                                                                                                               
compression        :   lossless                                                                                                              
optimization       :   balanced                                                                                                              
target/series      :   stellar-e                                                                                                             
workspace dir      :   /home/g.vilarde/stm_edge_ai/stm-edgeai-reliability/sw/hardening/c_code_validete/hand_posture/tmr_voter/st_ai_ws       
output dir         :   /home/g.vilarde/stm_edge_ai/stm-edgeai-reliability/sw/hardening/c_code_validete/hand_posture/tmr_voter/st_ai_output   
vinput files       :   /home/g.vilarde/stm_edge_ai/stm-edgeai-reliability/sw/datasets/handposture/hand_val_images.npy                        
model_fmt          :   float                                                                                                                 
model_name         :   voter_tmr                                                                                                             
model_hash         :   0xbdec3114de423393f4d6b64147e0bdec                                                                                    
params #           :   7,424 items (29.00 KiB)                                                                                               
---------------------------------------------------------------------------------------------------------------------------------------------
input 1/1          :   'input_1', f32(1x8x8x2), 512 Bytes, user                                                                              
output 1/1         :   'dense_1', f32(1x8), 32 Bytes, user                                                                                   
macc               :   13,256                                                                                                                
weights (ro)       :   29,696 B (29.00 KiB) (1 segment)                                                                                      
activations (rw)   :   744 B (744 B) (1 segment)                                                                                             
ram (total)        :   1,288 B (1.26 KiB) = 744 + 512 + 32                                                                                   
---------------------------------------------------------------------------------------------------------------------------------------------

Model name - voter_tmr
------ ------------------------------------------ ------------------- ------------- ------- ------------------ --- --------------- ------------------ ------------------------------- 
m_id   layer (type,original)                      oshape              param/size       macc       connected to   | c_size          c_macc             c_type                          
------ ------------------------------------------ ------------------- ------------- ------- ------------------ --- --------------- ------------------ ------------------------------- 
0      input_1 (Input, InputLayer)                [b:1,h:8,w:8,c:2]                                              |                                    
------ ------------------------------------------ ------------------- ------------- ------- ------------------ --- --------------- ------------------ ------------------------------- 
1      conv2d (Conv2D, Conv2D)                    [b:1,h:6,w:6,c:8]   152/608         5,192            input_1   | -608(-100.0%)   -5,192(-100.0%)    
------ ------------------------------------------ ------------------- ------------- ------- ------------------ --- --------------- ------------------ ------------------------------- 
2      activation (Nonlinearity, Activation)      [b:1,h:6,w:6,c:8]                     288             conv2d   |                 -288(-100.0%)      
------ ------------------------------------------ ------------------- ------------- ------- ------------------ --- --------------- ------------------ ------------------------------- 
3      max_pooling2d (Pool, MaxPooling2D)         [b:1,h:3,w:3,c:8]                     288         activation   | +608(+100.0%)   +5,480(+1902.8%)   Conv2D_[0]                      
------ ------------------------------------------ ------------------- ------------- ------- ------------------ --- --------------- ------------------ ------------------------------- 
5      flatten (Reshape, Flatten)                 [b:1,c:72]                                     max_pooling2d   |                                    
------ ------------------------------------------ ------------------- ------------- ------- ------------------ --- --------------- ------------------ ------------------------------- 
6      dense_tmr1_dense (Dense, Dense)            [b:1,c:32]          2,336/9,344     2,336            flatten   |                 +32(+1.4%)         Dense_/Nonlinearity_[5, 6]      
       dense_tmr1 (Nonlinearity, Dense)           [b:1,c:32]                             32   dense_tmr1_dense   |                 -32(-100.0%)       
------ ------------------------------------------ ------------------- ------------- ------- ------------------ --- --------------- ------------------ ------------------------------- 
7      dense_tmr2_dense (Dense, Dense)            [b:1,c:32]          2,336/9,344     2,336            flatten   |                 +32(+1.4%)         Dense_/Nonlinearity_[3, 4]      
       dense_tmr2 (Nonlinearity, Dense)           [b:1,c:32]                             32   dense_tmr2_dense   |                 -32(-100.0%)       
------ ------------------------------------------ ------------------- ------------- ------- ------------------ --- --------------- ------------------ ------------------------------- 
8      dense_tmr3_dense (Dense, Dense)            [b:1,c:32]          2,336/9,344     2,336            flatten   |                 +32(+1.4%)         Dense_/Nonlinearity_[1, 2]      
       dense_tmr3 (Nonlinearity, Dense)           [b:1,c:32]                             32   dense_tmr3_dense   |                 -32(-100.0%)       
------ ------------------------------------------ ------------------- ------------- ------- ------------------ --- --------------- ------------------ ------------------------------- 
9      dense_voter (Custom, MajorityVoterLayer)   [b:1,c:32]                                        dense_tmr1   |                                    Custom_[7]                      
                                                                                                    dense_tmr2   | 
                                                                                                    dense_tmr3   | 
------ ------------------------------------------ ------------------- ------------- ------- ------------------ --- --------------- ------------------ ------------------------------- 
10     dense_1_dense (Dense, Dense)               [b:1,c:8]           264/1,056         264        dense_voter   |                 +120(+45.5%)       Dense_/Nonlinearity_[o][8, 9]   
       dense_1 (Nonlinearity, Dense)              [b:1,c:8]                             120      dense_1_dense   |                 -120(-100.0%)      
------ ------------------------------------------ ------------------- ------------- ------- ------------------ --- --------------- ------------------ ------------------------------- 
model/c-model: macc=13,256/13,256  weights=29,696/29,696  activations=--/744 io=--/544



Generated C-graph summary
------------------------------------------------------------------------------------------------------------------------
model name            : voter_tmr
c-name                : network
c-node #              : 10
c-array #             : 23
activations size      : 744 (1 segment)
weights size          : 29696 (1 segment)
macc                  : 13256
inputs                : ['input_1_output']
outputs               : ['dense_1_output']

C-Arrays (23)
------ -------------------------- ----------- ------------------------- ------------- --------- 
c_id   name (*_array)             item/size   domain/mem-pool           c-type        comment   
------ -------------------------- ----------- ------------------------- ------------- --------- 
0      conv2d_bias                8/32        weights/weights           const float             
1      conv2d_output              72/288      activations/**default**   float                   
2      conv2d_scratch0            18/72       activations/**default**   float                   
3      conv2d_scratch1            96/384      activations/**default**   float                   
4      conv2d_weights             144/576     weights/weights           const float             
5      dense_1_dense_bias         8/32        weights/weights           const float             
6      dense_1_dense_output       8/32        activations/**default**   float                   
7      dense_1_dense_weights      256/1024    weights/weights           const float             
8      dense_1_output             8/32        user/                     float         /output   
9      dense_tmr1_dense_bias      32/128      weights/weights           const float             
10     dense_tmr1_dense_output    32/128      activations/**default**   float                   
11     dense_tmr1_dense_weights   2304/9216   weights/weights           const float             
12     dense_tmr1_output          32/128      activations/**default**   float                   
13     dense_tmr2_dense_bias      32/128      weights/weights           const float             
14     dense_tmr2_dense_output    32/128      activations/**default**   float                   
15     dense_tmr2_dense_weights   2304/9216   weights/weights           const float             
16     dense_tmr2_output          32/128      activations/**default**   float                   
17     dense_tmr3_dense_bias      32/128      weights/weights           const float             
18     dense_tmr3_dense_output    32/128      activations/**default**   float                   
19     dense_tmr3_dense_weights   2304/9216   weights/weights           const float             
20     dense_tmr3_output          32/128      activations/**default**   float                   
21     dense_voter_output         32/128      activations/**default**   float                   
22     input_1_output             128/512     user/                     float         /input    
------ -------------------------- ----------- ------------------------- ------------- --------- 

C-Layers (10)
------ ------------------ ---- --------------- ------ ------ ----------------------------- ------------------- 
c_id   name (*_layer)     id   layer_type      macc   rom    tensors                       shape (array id)    
------ ------------------ ---- --------------- ------ ------ ----------------------------- ------------------- 
0      conv2d             3    Conv2D          5768   608    I: input_1_output             f32(1x8x8x2) (22)   
                                                             S: conv2d_scratch0                                
                                                             S: conv2d_scratch1                                
                                                             W: conv2d_weights             f32(8x3x3x2) (4)    
                                                             W: conv2d_bias                f32(8) (0)          
                                                             O: conv2d_output              f32(1x3x3x8) (1)    
------ ------------------ ---- --------------- ------ ------ ----------------------------- ------------------- 
1      dense_tmr3_dense   8    Dense           2336   9344   I: conv2d_output              f32(1x3x3x8) (1)    
                                                             W: dense_tmr3_dense_weights   f32(32x72) (19)     
                                                             W: dense_tmr3_dense_bias      f32(32) (17)        
                                                             O: dense_tmr3_dense_output    f32(1x32) (18)      
------ ------------------ ---- --------------- ------ ------ ----------------------------- ------------------- 
2      dense_tmr3         8    Nonlinearity    32     0      I: dense_tmr3_dense_output    f32(1x32) (18)      
                                                             O: dense_tmr3_output          f32(1x32) (20)      
------ ------------------ ---- --------------- ------ ------ ----------------------------- ------------------- 
3      dense_tmr2_dense   7    Dense           2336   9344   I: conv2d_output              f32(1x3x3x8) (1)    
                                                             W: dense_tmr2_dense_weights   f32(32x72) (15)     
                                                             W: dense_tmr2_dense_bias      f32(32) (13)        
                                                             O: dense_tmr2_dense_output    f32(1x32) (14)      
------ ------------------ ---- --------------- ------ ------ ----------------------------- ------------------- 
4      dense_tmr2         7    Nonlinearity    32     0      I: dense_tmr2_dense_output    f32(1x32) (14)      
                                                             O: dense_tmr2_output          f32(1x32) (16)      
------ ------------------ ---- --------------- ------ ------ ----------------------------- ------------------- 
5      dense_tmr1_dense   6    Dense           2336   9344   I: conv2d_output              f32(1x3x3x8) (1)    
                                                             W: dense_tmr1_dense_weights   f32(32x72) (11)     
                                                             W: dense_tmr1_dense_bias      f32(32) (9)         
                                                             O: dense_tmr1_dense_output    f32(1x32) (10)      
------ ------------------ ---- --------------- ------ ------ ----------------------------- ------------------- 
6      dense_tmr1         6    Nonlinearity    32     0      I: dense_tmr1_dense_output    f32(1x32) (10)      
                                                             O: dense_tmr1_output          f32(1x32) (12)      
------ ------------------ ---- --------------- ------ ------ ----------------------------- ------------------- 
7      dense_voter        9    Custom          0      0      I: dense_tmr1_output          f32(1x32) (12)      
                                                             I: dense_tmr2_output          f32(1x32) (12)      
                                                             I: dense_tmr3_output          f32(1x32) (12)      
                                                             O: dense_voter_output         f32(1x32) (21)      
------ ------------------ ---- --------------- ------ ------ ----------------------------- ------------------- 
8      dense_1_dense      10   Dense           264    1056   I: dense_voter_output         f32(1x32) (21)      
                                                             W: dense_1_dense_weights      f32(8x32) (7)       
                                                             W: dense_1_dense_bias         f32(8) (5)          
                                                             O: dense_1_dense_output       f32(1x8) (6)        
------ ------------------ ---- --------------- ------ ------ ----------------------------- ------------------- 
9      dense_1            10   Nonlinearity    120    0      I: dense_1_dense_output       f32(1x8) (6)        
                                                             O: dense_1_output             f32(1x8) (8)        
------ ------------------ ---- --------------- ------ ------ ----------------------------- ------------------- 
 
Setting validation data...
 loading file: /home/g.vilarde/stm_edge_ai/stm-edgeai-reliability/sw/datasets/handposture/hand_val_images.npy
 I[1]: (2289, 8, 8, 2)/float32, min/max=[-0.939, 18.903], mean/std=[5.946, 8.846], input_1
 No output/reference samples are provided
 
Running the STM AI c-model (AI RUNNER)...(name=network, mode=TARGET)

 X86 shared lib (st_ai_ws/inspector_network/workspace/lib/libai_network.so) ['network']
  
  Summary 'network' - ['network']
  -----------------------------------------------------------------
  inputs/ouputs      :   1/1                                       
  input_1            :   f32[1,8,8,2], 512 Bytes, user             
  output_1           :   f32[1,1,1,8], 32 Bytes, user              
  n_nodes            :   10                                        
  compile_datetime   :   Apr  2 2026 17:07:02                      
  activations        :   744                                       
  weights            :   29696                                     
  macc               :   13256                                     
  -----------------------------------------------------------------
  tools              :   Legacy ST.AI 1.0.0                        
  capabilities       :   IO_ONLY, PER_LAYER, PER_LAYER_WITH_DATA   
  device             :   x86_64, x86_64, Linux                     
  -----------------------------------------------------------------
 Warning: C-network signature checking has been skipped
 
 
 NOTE: duration and exec time per layer is just an indication. They are dependent of the HOST-machine work-load.

  
  ST.AI Profiling results v1.2 - "network"
  -------------------------------------------------------------
  nb sample(s)   :   2289                                      
  duration       :   0.065 ms by sample (0.029/19.544/0.526)   
  macc           :   13256                                     
  -------------------------------------------------------------
   
   Inference time per node
   -------------------------------------------------------------------------------
   c_id    m_id   type                   dur (ms)       %   cumul     name        
   -------------------------------------------------------------------------------
   0       3      Conv2dPool (0x109)        0.029   45.0%   45.0%     ai_node_0   
   1       8      Dense (0x104)             0.010   14.9%   59.8%     ai_node_1   
   2       8      NL (0x107)                0.000    0.7%   60.6%     ai_node_2   
   3       7      Dense (0x104)             0.005    7.3%   67.8%     ai_node_3   
   4       7      NL (0x107)                0.000    0.7%   68.5%     ai_node_4   
   5       6      Dense (0x104)             0.005    7.3%   75.8%     ai_node_5   
   6       6      NL (0x107)                0.000    0.7%   76.5%     ai_node_6   
   7       9      Custom (0x182)            0.002    2.9%   79.4%     ai_node_7   
   8       10     Dense (0x104)             0.001    2.0%   81.4%     ai_node_8   
   9       10     NL (0x107)                0.001    2.1%   83.5%     ai_node_9   
   -------------------------------------------------------------------------------
   total                                    0.055                                 
   -------------------------------------------------------------------------------
   
   Statistic per tensor
   -----------------------------------------------------------------------------------
   tensor   #      type[shape]:size        min      max     mean      std  name       
   -----------------------------------------------------------------------------------
   I.0      2289   f32[1,8,8,2]:512     -0.939   18.903    5.946    8.846  input_1    
   O.0      2289   f32[1,1,1,8]:32       0.000    1.000    0.125    0.310  output_1   
   -----------------------------------------------------------------------------------
 
Saving validation data...
 output directory: /home/g.vilarde/stm_edge_ai/stm-edgeai-reliability/sw/hardening/c_code_validete/hand_posture/tmr_voter/st_ai_output
 creating /home/g.vilarde/stm_edge_ai/stm-edgeai-reliability/sw/hardening/c_code_validete/hand_posture/tmr_voter/st_ai_output/network_val_io.npz
 m_outputs_1: (2289, 1, 1, 8)/float32, min/max=[0.000, 1.000], mean/std=[0.125, 0.310], dense_1
 c_outputs_1: (2289, 1, 1, 8)/float32, min/max=[0.000, 1.000], mean/std=[0.125, 0.310], dense_1

 
Computing the metrics...

 Cross accuracy report #1 (reference vs C-model)
 ----------------------------------------------------------------------------------------------------
 notes: - the output of the reference model is used as ground truth/reference value
        - 2289 samples (8 items per sample)

  acc=100.00%, rmse=0.000000122, mae=0.000000023, l2r=0.000000364, nse=1.000, cos=1.000

  8 classes (2289 samples)
  ------------------------------------------------
  C0       71    .    .    .    .    .    .    .  
  C1        .   242   .    .    .    .    .    .  
  C2        .    .   233   .    .    .    .    .  
  C3        .    .    .   298   .    .    .    .  
  C4        .    .    .    .   225   .    .    .  
  C5        .    .    .    .    .   277   .    .  
  C6        .    .    .    .    .    .   467   .  
  C7        .    .    .    .    .    .    .   476 


Number of operations per c-layer
------- ------ --------------------------- -------- -------------- 
c_id    m_id   name (type)                      #op           type 
------- ------ --------------------------- -------- -------------- 
0       3      conv2d (Conv2D)                5,768   smul_f32_f32 
1       8      dense_tmr3_dense (Dense)       2,336   smul_f32_f32 
2       8      dense_tmr3 (Nonlinearity)         32     op_f32_f32 
3       7      dense_tmr2_dense (Dense)       2,336   smul_f32_f32 
4       7      dense_tmr2 (Nonlinearity)         32     op_f32_f32 
5       6      dense_tmr1_dense (Dense)       2,336   smul_f32_f32 
6       6      dense_tmr1 (Nonlinearity)         32     op_f32_f32 
7       9      dense_voter (Custom)               0   smul_f32_f32 
8       10     dense_1_dense (Dense)            264   smul_f32_f32 
9       10     dense_1 (Nonlinearity)           120     op_f32_f32 
------- ------ --------------------------- -------- -------------- 
total                                        13,256 

Number of operation types
---------------- -------- ----------- 
operation type          #           % 
---------------- -------- ----------- 
smul_f32_f32       13,040       98.4% 
op_f32_f32            216        1.6% 

Complexity report (model)
------ ------------------ ------------------------- ------------------------- -------- -------- ------------------ 
m_id   name               c_macc                    c_rom                     c_id     c_dur    l2r (X-CROSS)      
------ ------------------ ------------------------- ------------------------- -------- -------- ------------------ 
3      max_pooling2d      ||||||||||||||||  43.5%   |                  2.0%   [0]       54.7%                      
6      dense_tmr1_dense   |||||||           17.9%   ||||||||||||||||  31.5%   [5, 6]    11.7%                      
7      dense_tmr2_dense   |||||||           17.9%   ||||||||||||||||  31.5%   [3, 4]    11.5%                      
8      dense_tmr3_dense   |||||||           17.9%   ||||||||||||||||  31.5%   [1, 2]    12.0%                      
9      dense_voter        |                  0.0%   |                  0.0%   [7]        4.2%                      
10     dense_1_dense      |                  2.9%   ||                 3.6%   [8, 9]     6.0%   3.64237650e-07 *   
------ ------------------ ------------------------- ------------------------- -------- -------- ------------------ 
macc=13,256 weights=29,696 act=744 ram_io=544

Evaluation report (summary)
---------------------------------------------------------------------------------------------------------------------------------------
Output       acc       rmse        mae         l2r         mean         std         nse         cos         tensor                     
---------------------------------------------------------------------------------------------------------------------------------------
X-cross #1   100.00%   0.0000001   0.0000000   0.0000004   -0.0000000   0.0000001   1.0000000   1.0000000   dense_1, (8,), m_id=[10]   
---------------------------------------------------------------------------------------------------------------------------------------

 acc  : Classification accuracy (all classes)
 rmse : Root Mean Squared Error
 mae  : Mean Absolute Error
 l2r  : L2 relative error
 nse  : Nash-Sutcliffe efficiency criteria, bigger is better, best=1, range=(-inf, 1]
 cos  : COsine Similarity, bigger is better, best=1, range=(0, 1]
