ST Edge AI Core v1.0.0-19895
Created date          : 2026-03-31 10:30:22
Parameters            : validate --model sw/hardening/hardened_models/hand_posture/hand_posture_tmr.h5 --target stellar-e --custom sw/hardening/config/voter_tmr.json -vi sw/datasets/handposture/hand_val_images.npy -vo sw/datasets/handposture/hand_val_labels.npy --mode host -d library

Exec/report summary (validate)
------------------------------------------------------------------------------------------------------------------------
model file         :   /home/apo/stm-edgeai-reliability/sw/hardening/hardened_models/hand_posture/hand_posture_tmr.h5   
type               :   keras                                                                                            
c_name             :   network                                                                                          
compression        :   lossless                                                                                         
optimization       :   balanced                                                                                         
target/series      :   stellar-e                                                                                        
workspace dir      :   /home/apo/stm-edgeai-reliability/st_ai_ws                                                        
output dir         :   /home/apo/stm-edgeai-reliability/st_ai_output                                                    
vinput files       :   /home/apo/stm-edgeai-reliability/sw/datasets/handposture/hand_val_images.npy                     
vinput files       :   /home/apo/stm-edgeai-reliability/sw/datasets/handposture/hand_val_labels.npy                     
voutput files      :   /home/apo/stm-edgeai-reliability/sw/datasets/handposture/hand_val_labels.npy                     
model_fmt          :   float                                                                                            
model_name         :   hand_posture_tmr                                                                                 
model_hash         :   0x86b4ab8b09ad8c1edf157dc408dd1774                                                               
params #           :   3,056 items (11.94 KiB)                                                                          
------------------------------------------------------------------------------------------------------------------------
input 1/1          :   'input_1', f32(1x8x8x2), 512 Bytes, user                                                         
output 1/1         :   'dense_1', f32(1x8), 32 Bytes, user                                                              
macc               :   18,904                                                                                           
weights (ro)       :   12,224 B (11.94 KiB) (1 segment)                                                                 
activations (rw)   :   4,608 B (4.50 KiB) (1 segment)                                                                   
ram (total)        :   5,152 B (5.03 KiB) = 4,608 + 512 + 32                                                            
------------------------------------------------------------------------------------------------------------------------

Model name - hand_posture_tmr
------ ------------------------------------------- ------------------- ------------- ------- --------------- --- -------- --------------- ------------------------------- 
m_id   layer (type,original)                       oshape              param/size       macc    connected to   | c_size   c_macc          c_type                          
------ ------------------------------------------- ------------------- ------------- ------- --------------- --- -------- --------------- ------------------------------- 
0      input_1 (Input, InputLayer)                 [b:1,h:8,w:8,c:2]                                           |                          
------ ------------------------------------------- ------------------- ------------- ------- --------------- --- -------- --------------- ------------------------------- 
1      conv2d_tmr1 (Conv2D, Conv2D)                [b:1,h:6,w:6,c:8]   152/608         5,192         input_1   |                          Conv2D_[2]                      
------ ------------------------------------------- ------------------- ------------- ------- --------------- --- -------- --------------- ------------------------------- 
2      conv2d_tmr2 (Conv2D, Conv2D)                [b:1,h:6,w:6,c:8]   152/608         5,192         input_1   |                          Conv2D_[1]                      
------ ------------------------------------------- ------------------- ------------- ------- --------------- --- -------- --------------- ------------------------------- 
3      conv2d_tmr3 (Conv2D, Conv2D)                [b:1,h:6,w:6,c:8]   152/608         5,192         input_1   |                          Conv2D_[0]                      
------ ------------------------------------------- ------------------- ------------- ------- --------------- --- -------- --------------- ------------------------------- 
4      conv2d_voter (Custom, MajorityVoterLayer)   [b:1,h:6,w:6,c:8]                             conv2d_tmr1   |                          Custom_[3]                      
                                                                                                 conv2d_tmr2   | 
                                                                                                 conv2d_tmr3   | 
------ ------------------------------------------- ------------------- ------------- ------- --------------- --- -------- --------------- ------------------------------- 
5      activation (Nonlinearity, Activation)       [b:1,h:6,w:6,c:8]                     288    conv2d_voter   |                          Nonlinearity_[4]                
------ ------------------------------------------- ------------------- ------------- ------- --------------- --- -------- --------------- ------------------------------- 
6      max_pooling2d (Pool, MaxPooling2D)          [b:1,h:3,w:3,c:8]                     288      activation   |                          Pool_[5]                        
------ ------------------------------------------- ------------------- ------------- ------- --------------- --- -------- --------------- ------------------------------- 
8      flatten (Reshape, Flatten)                  [b:1,c:72]                                  max_pooling2d   |                          
------ ------------------------------------------- ------------------- ------------- ------- --------------- --- -------- --------------- ------------------------------- 
9      dense_dense (Dense, Dense)                  [b:1,c:32]          2,336/9,344     2,336         flatten   |          +32(+1.4%)      Dense_/Nonlinearity_[6, 7]      
       dense (Nonlinearity, Dense)                 [b:1,c:32]                             32     dense_dense   |          -32(-100.0%)    
------ ------------------------------------------- ------------------- ------------- ------- --------------- --- -------- --------------- ------------------------------- 
10     dense_1_dense (Dense, Dense)                [b:1,c:8]           264/1,056         264           dense   |          +120(+45.5%)    Dense_/Nonlinearity_[o][8, 9]   
       dense_1 (Nonlinearity, Dense)               [b:1,c:8]                             120   dense_1_dense   |          -120(-100.0%)   
------ ------------------------------------------- ------------------- ------------- ------- --------------- --- -------- --------------- ------------------------------- 
model/c-model: macc=18,904/18,904  weights=12,224/12,224  activations=--/4,608 io=--/544



Generated C-graph summary
------------------------------------------------------------------------------------------------------------------------
model name            : hand_posture_tmr
c-name                : network
c-node #              : 10
c-array #             : 24
activations size      : 4608 (1 segment)
weights size          : 12224 (1 segment)
macc                  : 18904
inputs                : ['input_1_output']
outputs               : ['dense_1_output']

C-Arrays (24)
------ ----------------------- ----------- ------------------------- ------------- --------- 
c_id   name (*_array)          item/size   domain/mem-pool           c-type        comment   
------ ----------------------- ----------- ------------------------- ------------- --------- 
0      activation_output       288/1152    activations/**default**   float                   
1      conv2d_tmr1_bias        8/32        weights/weights           const float             
2      conv2d_tmr1_output      288/1152    activations/**default**   float                   
3      conv2d_tmr1_scratch0    18/72       activations/**default**   float                   
4      conv2d_tmr1_weights     144/576     weights/weights           const float             
5      conv2d_tmr2_bias        8/32        weights/weights           const float             
6      conv2d_tmr2_output      288/1152    activations/**default**   float                   
7      conv2d_tmr2_scratch0    18/72       activations/**default**   float                   
8      conv2d_tmr2_weights     144/576     weights/weights           const float             
9      conv2d_tmr3_bias        8/32        weights/weights           const float             
10     conv2d_tmr3_output      288/1152    activations/**default**   float                   
11     conv2d_tmr3_scratch0    18/72       activations/**default**   float                   
12     conv2d_tmr3_weights     144/576     weights/weights           const float             
13     conv2d_voter_output     288/1152    activations/**default**   float                   
14     dense_1_dense_bias      8/32        weights/weights           const float             
15     dense_1_dense_output    8/32        activations/**default**   float                   
16     dense_1_dense_weights   256/1024    weights/weights           const float             
17     dense_1_output          8/32        user/                     float         /output   
18     dense_dense_bias        32/128      weights/weights           const float             
19     dense_dense_output      32/128      activations/**default**   float                   
20     dense_dense_weights     2304/9216   weights/weights           const float             
21     dense_output            32/128      activations/**default**   float                   
22     input_1_output          128/512     user/                     float         /input    
23     max_pooling2d_output    72/288      activations/**default**   float                   
------ ----------------------- ----------- ------------------------- ------------- --------- 

C-Layers (10)
------ ---------------- ---- --------------- ------ ------ -------------------------- ------------------- 
c_id   name (*_layer)   id   layer_type      macc   rom    tensors                    shape (array id)    
------ ---------------- ---- --------------- ------ ------ -------------------------- ------------------- 
0      conv2d_tmr3      3    Conv2D          5192   608    I: input_1_output          f32(1x8x8x2) (22)   
                                                           S: conv2d_tmr3_scratch0                        
                                                           W: conv2d_tmr3_weights     f32(8x3x3x2) (12)   
                                                           W: conv2d_tmr3_bias        f32(8) (9)          
                                                           O: conv2d_tmr3_output      f32(1x6x6x8) (10)   
------ ---------------- ---- --------------- ------ ------ -------------------------- ------------------- 
1      conv2d_tmr2      2    Conv2D          5192   608    I: input_1_output          f32(1x8x8x2) (22)   
                                                           S: conv2d_tmr2_scratch0                        
                                                           W: conv2d_tmr2_weights     f32(8x3x3x2) (8)    
                                                           W: conv2d_tmr2_bias        f32(8) (5)          
                                                           O: conv2d_tmr2_output      f32(1x6x6x8) (6)    
------ ---------------- ---- --------------- ------ ------ -------------------------- ------------------- 
2      conv2d_tmr1      1    Conv2D          5192   608    I: input_1_output          f32(1x8x8x2) (22)   
                                                           S: conv2d_tmr1_scratch0                        
                                                           W: conv2d_tmr1_weights     f32(8x3x3x2) (4)    
                                                           W: conv2d_tmr1_bias        f32(8) (1)          
                                                           O: conv2d_tmr1_output      f32(1x6x6x8) (2)    
------ ---------------- ---- --------------- ------ ------ -------------------------- ------------------- 
3      conv2d_voter     4    Custom          0      0      I: conv2d_tmr1_output      f32(1x6x6x8) (2)    
                                                           I: conv2d_tmr2_output      f32(1x6x6x8) (2)    
                                                           I: conv2d_tmr3_output      f32(1x6x6x8) (2)    
                                                           O: conv2d_voter_output     f32(1x6x6x8) (13)   
------ ---------------- ---- --------------- ------ ------ -------------------------- ------------------- 
4      activation       5    Nonlinearity    288    0      I: conv2d_voter_output     f32(1x6x6x8) (13)   
                                                           O: activation_output       f32(1x6x6x8) (0)    
------ ---------------- ---- --------------- ------ ------ -------------------------- ------------------- 
5      max_pooling2d    6    Pool            288    0      I: activation_output       f32(1x6x6x8) (0)    
                                                           O: max_pooling2d_output    f32(1x3x3x8) (23)   
------ ---------------- ---- --------------- ------ ------ -------------------------- ------------------- 
6      dense_dense      9    Dense           2336   9344   I: max_pooling2d_output    f32(1x3x3x8) (23)   
                                                           W: dense_dense_weights     f32(32x72) (20)     
                                                           W: dense_dense_bias        f32(32) (18)        
                                                           O: dense_dense_output      f32(1x32) (19)      
------ ---------------- ---- --------------- ------ ------ -------------------------- ------------------- 
7      dense            9    Nonlinearity    32     0      I: dense_dense_output      f32(1x32) (19)      
                                                           O: dense_output            f32(1x32) (21)      
------ ---------------- ---- --------------- ------ ------ -------------------------- ------------------- 
8      dense_1_dense    10   Dense           264    1056   I: dense_output            f32(1x32) (21)      
                                                           W: dense_1_dense_weights   f32(8x32) (16)      
                                                           W: dense_1_dense_bias      f32(8) (14)         
                                                           O: dense_1_dense_output    f32(1x8) (15)       
------ ---------------- ---- --------------- ------ ------ -------------------------- ------------------- 
9      dense_1          10   Nonlinearity    120    0      I: dense_1_dense_output    f32(1x8) (15)       
                                                           O: dense_1_output          f32(1x8) (17)       
------ ---------------- ---- --------------- ------ ------ -------------------------- ------------------- 
 
Setting validation data...
 loading file: /home/apo/stm-edgeai-reliability/sw/datasets/handposture/hand_val_images.npy
 loading file: /home/apo/stm-edgeai-reliability/sw/datasets/handposture/hand_val_labels.npy
 - samples are reshaped: (2289, 8) -> (2289, 1, 1, 8)
 I[1]: (2289, 8, 8, 2)/float32, min/max=[-0.939, 18.903], mean/std=[5.946, 8.846], input_1
 O[1]: (2289, 1, 1, 8)/float32, min/max=[0.000, 1.000], mean/std=[0.125, 0.331], dense_1
 
Running the STM AI c-model (AI RUNNER)...(name=network, mode=HOST)

 X86 shared lib (/home/apo/stm-edgeai-reliability/st_ai_ws/inspector_network/workspace/lib/libai_network.so) ['network']
  
  Summary 'network' - ['network']
  -----------------------------------------------------------------
  inputs/ouputs      :   1/1                                       
  input_1            :   f32[1,8,8,2], 512 Bytes, user             
  output_1           :   f32[1,1,1,8], 32 Bytes, user              
  n_nodes            :   10                                        
  compile_datetime   :   Mar 31 2026 10:30:15                      
  activations        :   4608                                      
  weights            :   12224                                     
  macc               :   18904                                     
  -----------------------------------------------------------------
  tools              :   Legacy ST.AI 1.0.0                        
  capabilities       :   IO_ONLY, PER_LAYER, PER_LAYER_WITH_DATA   
  device             :   x86_64, , Linux                           
  -----------------------------------------------------------------
 
 NOTE: duration and exec time per layer is just an indication. They are dependent of the HOST-machine work-load.

  
  ST.AI Profiling results v1.2 - "network"
  ------------------------------------------------------------
  nb sample(s)   :   2289                                     
  duration       :   0.037 ms by sample (0.024/1.359/0.030)   
  macc           :   18904                                    
  ------------------------------------------------------------
   
   Inference time per node
   ---------------------------------------------------------------------------
   c_id    m_id   type               dur (ms)       %   cumul     name        
   ---------------------------------------------------------------------------
   0       3      Conv2D (0x103)        0.009   24.7%   24.7%     ai_node_0   
   1       2      Conv2D (0x103)        0.009   25.5%   50.2%     ai_node_1   
   2       1      Conv2D (0x103)        0.009   23.7%   73.9%     ai_node_2   
   3       4      Custom (0x182)        0.001    2.2%   76.0%     ai_node_3   
   4       5      NL (0x107)            0.001    1.9%   77.9%     ai_node_4   
   5       6      Pool (0x10b)          0.001    3.2%   81.1%     ai_node_5   
   6       9      Dense (0x104)         0.003    7.2%   88.2%     ai_node_6   
   7       9      NL (0x107)            0.001    1.6%   89.8%     ai_node_7   
   8       10     Dense (0x104)         0.001    2.2%   92.0%     ai_node_8   
   9       10     NL (0x107)            0.001    2.8%   94.8%     ai_node_9   
   ---------------------------------------------------------------------------
   total                                0.035                                 
   ---------------------------------------------------------------------------
   
   Statistic per tensor
   -----------------------------------------------------------------------------------
   tensor   #      type[shape]:size        min      max     mean      std  name       
   -----------------------------------------------------------------------------------
   I.0      2289   f32[1,8,8,2]:512     -0.939   18.903    5.946    8.846  input_1    
   O.0      2289   f32[1,1,1,8]:32         nan      nan      nan      nan  output_1   
   -----------------------------------------------------------------------------------
 
Saving validation data...
 output directory: /home/apo/stm-edgeai-reliability/st_ai_output
 creating /home/apo/stm-edgeai-reliability/st_ai_output/network_val_io.npz
 m_outputs_1: (2289, 1, 1, 8)/float32, min/max=[0.000, 1.000], mean/std=[0.125, 0.310], dense_1
 c_outputs_1: (2289, 1, 1, 8)/float32, min/max=[nan, nan], mean/std=[nan, nan], dense_1

 
Computing the metrics...

 Accuracy report #1 for the generated HOST C-model
 ----------------------------------------------------------------------------------------------------
 notes: - p/ - nan/inf values are set to zeros
        - computed against the provided ground truth values
        - 2289 samples (8 items per sample)

  acc=2.88%, rmse=nan, mae=nan, l2r=nan, nse=nan, cos=nan

  8 classes (2289 samples)
  ------------------------------------------------
  C0       60    .    .    .    .    2    .    .  
  C1       342   0    .    .    .   10    .    .  
  C2       314   1    0    .    .    9    .    .  
  C3       238   .    .    0    .    8    .    .  
  C4       309   .    .    .    0    7    .    1  
  C5       259   .    .    .    .    6    .    .  
  C6       241   .    .    .    .    4    0    .  
  C7       460   .    .    .    1   17    .    0  

 Accuracy report #1 for the reference model
 ----------------------------------------------------------------------------------------------------
 notes: - computed against the provided ground truth values
        - 2289 samples (8 items per sample)

  acc=70.60%, rmse=0.251136154, mae=0.076128356, l2r=0.750610530, nse=0.423, cos=0.735

  8 classes (2289 samples)
  ------------------------------------------------
  C0       46    9    1    .    1    .    5    .  
  C1       18   211  13   10    .    .   52   48  
  C2        2   15   188   .    8    .   98   13  
  C3        .    .    .   225   .    7   14    .  
  C4        .    3    5   27   159   9   24   90  
  C5        .    .    .   12   13   239   1    .  
  C6        2    .    .   15    .    5   223   .  
  C7        3    4   26    9   44   17   50   325 

 Cross accuracy report #1 (reference vs C-model)
 ----------------------------------------------------------------------------------------------------
 notes: - p/ - nan/inf values are set to zeros
        - the output of the reference model is used as ground truth/reference value
        - 2289 samples (8 items per sample)

  acc=3.36%, rmse=nan, mae=nan, l2r=nan, nse=nan, cos=nan

  8 classes (2289 samples)
  ------------------------------------------------
  C0       70    .    .    .    .    1    .    .  
  C1       236   0    .    .    .    6    .    .  
  C2       224   .    0    .    .    9    .    .  
  C3       289   .    .    0    .    9    .    .  
  C4       218   .    .    .    1    5    .    1  
  C5       271   .    .    .    .    6    .    .  
  C6       450   1    .    .    .   16    0    .  
  C7       465   .    .    .    .   11    .    0  


Number of operations per c-layer
------- ------ --------------------------- -------- -------------- 
c_id    m_id   name (type)                      #op           type 
------- ------ --------------------------- -------- -------------- 
0       3      conv2d_tmr3 (Conv2D)           5,192   smul_f32_f32 
1       2      conv2d_tmr2 (Conv2D)           5,192   smul_f32_f32 
2       1      conv2d_tmr1 (Conv2D)           5,192   smul_f32_f32 
3       4      conv2d_voter (Custom)              0   smul_f32_f32 
4       5      activation (Nonlinearity)        288     op_f32_f32 
5       6      max_pooling2d (Pool)             288   smul_f32_f32 
6       9      dense_dense (Dense)            2,336   smul_f32_f32 
7       9      dense (Nonlinearity)              32     op_f32_f32 
8       10     dense_1_dense (Dense)            264   smul_f32_f32 
9       10     dense_1 (Nonlinearity)           120     op_f32_f32 
------- ------ --------------------------- -------- -------------- 
total                                        18,904 

Number of operation types
---------------- -------- ----------- 
operation type          #           % 
---------------- -------- ----------- 
smul_f32_f32       18,464       97.7% 
op_f32_f32            440        2.3% 

Complexity report (model)
------ --------------- ------------------------- ------------------------- -------- -------- --------------- 
m_id   name            c_macc                    c_rom                     c_id     c_dur    l2r (X-CROSS)   
------ --------------- ------------------------- ------------------------- -------- -------- --------------- 
1      conv2d_tmr1     ||||||||||||||||  27.5%   |                  5.0%   [2]       25.5%                   
2      conv2d_tmr2     ||||||||||||||||  27.5%   |                  5.0%   [1]       25.8%                   
3      conv2d_tmr3     ||||||||||||||||  27.5%   |                  5.0%   [0]       26.6%                   
4      conv2d_voter    |                  0.0%   |                  0.0%   [3]        2.3%                   
5      activation      |                  1.5%   |                  0.0%   [4]        2.0%                   
6      max_pooling2d   |                  1.5%   |                  0.0%   [5]        3.4%                   
9      dense_dense     |||||||           12.5%   ||||||||||||||||  76.4%   [6, 7]     9.1%                   
10     dense_1_dense   ||                 2.0%   ||                 8.6%   [8, 9]     5.3%   nan             
------ --------------- ------------------------- ------------------------- -------- -------- --------------- 
macc=18,904 weights=12,224 act=4,608 ram_io=544

Evaluation report (summary)
--------------------------------------------------------------------------------------------------------------------------------------------
Output              acc      rmse        mae         l2r         mean        std         nse         cos         tensor                     
--------------------------------------------------------------------------------------------------------------------------------------------
HOST c-model #1     2.88%    nan         nan         nan         nan         nan         nan         nan         dense_1, (8,), m_id=[10]   
original model #1   70.60%   0.2511362   0.0761284   0.7506105   0.0000000   0.2511430   0.4233978   0.7349354   dense_1, (8,), m_id=[10]   
X-cross #1          3.36%    nan         nan         nan         nan         nan         nan         nan         dense_1, (8,), m_id=[10]   
--------------------------------------------------------------------------------------------------------------------------------------------

 acc  : Classification accuracy (all classes)
 rmse : Root Mean Squared Error
 mae  : Mean Absolute Error
 l2r  : L2 relative error
 nse  : Nash-Sutcliffe efficiency criteria, bigger is better, best=1, range=(-inf, 1]
 cos  : COsine Similarity, bigger is better, best=1, range=(0, 1]
